Reinforcement Learning/modelos/car_agent_0.pth (torch, 77381 bytes, 6 tensors)

net.0.weight f4 [128, 6]
0	0xbc980d12	-0.01856092
1	0x3e763534	0.24043733
2	0x3ecb6191	0.39722875
3	0x3eb85301	0.36000827
4	0x3e19ee44	0.15032297
5	0x3e6ffd66	0.23436508
6	0xbf0cd405	-0.55011016
7	0xbef817a2	-0.4845553
8	0x3ea03e03	0.3129731
9	0xbed43dd8	-0.41453433
10	0xbf423bf9	-0.7587276
11	0xbf5305f0	-0.82430935
12	0x3f06b10d	0.5261391
13	0xbe8f3f87	-0.27978155
14	0xc05de0a9	-3.4668372
15	0xc0236147	-2.5528123
16	0xc038706a	-2.8818612
17	0x3f72d134	0.9485047
18	0xbfcbb5f5	-1.5914904
19	0xbf85a41f	-1.0440711
20	0xc01da780	-2.4633484
21	0xbdb1b6fa	-0.08677478
22	0x3b8f1ab6	0.004367198
23	0x3f009bf4	0.50237966
24	0xbe1397fa	-0.14413443
25	0xbda60328	-0.08106071
26	0x3df0d168	0.11758691
27	0xbeb5af9f	-0.3548555
28	0x3c605660	0.013692468
29	0xbd97ca40	-0.07411623
30	0xc0588a48	-3.38344
31	0xc075e74a	-3.8422418
32	0xc06556ac	-3.583415
33	0xc079e34c	-3.904498
34	0xbfe5d7a9	-1.7956439
35	0xc03dcd79	-2.965666
36	0xbfbf8a20	-1.4964027
37	0xbf294081	-0.6611405
38	0xbd0d4509	-0.034489665
39	0x3d59f3f1	0.053211156
40	0xbc7d4fb8	-0.015460901
41	0x3f822315	1.0166956
42	0xbeb78f7c	-0.35851657
43	0xbecc30fd	-0.39881125
44	0xbe4a9a6e	-0.19785473
45	0xbe323f16	-0.17406878
46	0x3d6c0810	0.057624876
47	0xbec03266	-0.3753845
48	0xbfd4b106	-1.6616523
49	0xbf780e15	-0.9689649
50	0xc0194c0b	-2.3952663
51	0xba4b19f5	-0.00077477033
52	0x3e1650b3	0.14679222
53	0x3f95a98a	1.1692364
54	0x3f9f2c4e	1.2435396
55	0xbecdf05c	-0.40222442
56	0xbf205393	-0.62627524
57	0xbed105cd	-0.40824738
58	0x3e7a1c21	0.24424793
59	0x3f40cc5f	0.75311846
60	0xbd9ec91a	-0.07753201
61	0x3d2f84b9	0.042851184
62	0x3e62299f	0.2208619
63	0x3e70c693	0.2351325
64	0xbf103b10	-0.5634012
65	0x3ffdfd02	1.9842837
66	0xbfc9c320	-1.5762672
67	0xbf9fd8fc	-1.2488093
68	0xbfcb7f0e	-1.5898149
69	0xbd726625	-0.059179444
70	0x3caeab4e	0.021321919
71	0x3f6137a9	0.87975556
72	0xbde42914	-0.111406475
73	0xbe6287dd	-0.2212214
74	0xbe3ee5fa	-0.18642417
75	0xbeb24844	-0.3482076
76	0x3e086adc	0.13322014
77	0xbeceaeb4	-0.40367663
78	0xbe9cfde0	-0.3066244
79	0xbc743de0	-0.01490733
80	0x3e98dd0a	0.2985614
81	0xbec67045	-0.3875753
82	0xbcedca70	-0.029027194
83	0x3c995230	0.018715948
84	0x3e98cf7e	0.29845804
85	0x3e540780	0.20705986
86	0x3e38a8c5	0.1803313
87	0x3eee31f6	0.46522492
88	0x3e49ffb6	0.19726452
89	0x3eb56280	0.35426712
90	0x3e3b763d	0.18306823
91	0x3f0d9ed7	0.55320495
92	0x3d514a0c	0.051096007
93	0xbe9ab64a	-0.302172
94	0xbd534f2e	-0.051589184
95	0x3f8fc33e	1.1231458
96	0xc00f8a63	-2.2428215
97	0xbf3d31ff	-0.73904413
98	0xc01c054f	-2.437824
99	0xbd129249	-0.03578404
100	0xbd919709	-0.07108886
101	0x3fd13ed4	1.6347299
102	0x3e23b093	0.15985326
103	0xbe1b14c6	-0.15144643
104	0x3e897caf	0.2685294
105	0x3f037dcc	0.51363826
106	0xbe376f32	-0.17913511
107	0x3f923433	1.142218
108	0xbe827ad8	-0.25484347
109	0xbf241a73	-0.6410286
110	0x3daf2e72	0.085537806
111	0x3ecdda59	0.4020565
112	0xbe50f470	-0.20405746
113	0x3ebbcfa3	0.36681852
114	0x3e803001	0.25036624
115	0xbe6e67a5	-0.23281725
116	0xbed720e8	-0.42017293
117	0x3e8df749	0.27727726
118	0x3e280dac	0.16411465
119	0xbf31fa17	-0.6952223
120	0xbff046f0	-1.8771648
121	0xbfd353e3	-1.6509975
122	0xbfe11de5	-1.7587248
123	0xbd078c46	-0.03309276
124	0x380d2230	3.364886e-05
125	0x3ef9cb82	0.48788077
126	0x3f1e2e49	0.61789376
127	0x3bffcfc5	0.0078067505
128	0xbd0df8b8	-0.034661025
129	0x3eb552f3	0.35414848
130	0x3bfe0625	0.0077521973
131	0x3f0548f7	0.5206446
132	0xbe76e2c8	-0.24109948
133	0xbeaee2ea	-0.34157497
134	0xbe239477	-0.15974604
135	0xbebd7d36	-0.3700959
136	0x3db83230	0.089939475
137	0xbd299348	-0.041400224
138	0x3bbc90d2	0.0057545686
139	0x3eef9c2b	0.46798834
140	0x3d0aa1df	0.03384578
141	0x3f281c6f	0.65668386
142	0xbe344d67	-0.17607652
143	0xbf7f88fc	-0.99818397
144	0x3dfcd31b	0.12344953
145	0xbe31ba69	-0.17356266
146	0x3e8b643d	0.27224913
147	0xbd43e005	-0.047821064
148	0xbf2f4548	-0.6846509
149	0x3e2e751a	0.17036858
150	0xc00ca4c2	-2.197556
151	0xbff4f978	-1.9138632
152	0xc0039e8e	-2.0565524
153	0xbdffa54f	-0.12482702
154	0x3d88061b	0.066417895
155	0x3f566768	0.83751535
156	0xbe965439	-0.29361132
157	0xbdc087bc	-0.09400889
158	0x3e69ce44	0.2283259
159	0xbea1681a	-0.31524736
160	0x3d65dc58	0.05611834
161	0xbe57a958	-0.21060693
162	0xbec74a74	-0.3892399
163	0xbe178062	-0.14795068
164	0x3eaf9326	0.34291953
165	0xbe21a71c	-0.15786403
166	0x3e428b08	0.18998349
167	0xbeaf3d32	-0.34226376
168	0xbec7c042	-0.3901387
169	0xbd024da0	-0.03181231
170	0xbded0520	-0.11573243
171	0x3e9a5e06	0.3014986
172	0xbe98281e	-0.29718107
173	0xbd686980	-0.056741238
174	0xbff91dea	-1.9462254
175	0xbfd59445	-1.6685873
176	0xbfd51fcf	-1.6650332
177	0xbe0fed2b	-0.14055316
178	0x3e46fc7f	0.19432257
179	0x3f73a772	0.95177376
180	0x3ec1bafb	0.37837967
181	0x3f0c5832	0.54822075
182	0x3eca0b4a	0.39461738
183	0x3f0418bb	0.51600236
184	0x3eafee1e	0.34361356
185	0x3e614f6d	0.22002955
186	0x3f3323c8	0.6997647
187	0xbe311cbc	-0.17296118
188	0xbe99532b	-0.29946265
189	0x3e302f69	0.17205586
190	0xbefd46f5	-0.49468198
191	0xbf370ca1	-0.71503645
192	0xc0195d21	-2.3963091
193	0xc01043f7	-2.2541482
194	0xc037903d	-2.8681786
195	0xbe91dd51	-0.28489164
196	0x3e5d07db	0.21585028
197	0x3f22f3c9	0.63653237
198	0xc04cf74e	-3.2025943
199	0xbfeddac7	-1.858239
200	0xc02f4039	-2.7382948
201	0x3d17048c	0.03686957
202	0x3d21c0a1	0.039490346
203	0x3fc34c1b	1.52576
204	0x3f67402a	0.9033228
205	0xbf2ed38f	-0.6829156
206	0xbf548656	-0.8301748
207	0x3eae5f95	0.34057298
208	0xba628d47	-0.0008642268
209	0xbf61e600	-0.8824158
210	0xc072c650	-3.793354
211	0xc075cc2d	-3.840587
212	0xc0766d6e	-3.850429
213	0xc01d8d4c	-2.461749
214	0xbfbd94bd	-1.4811016
215	0xc01806ca	-2.3754144
216	0xbfb63260	-1.4234123
217	0xbf3535f4	-0.7078545
218	0xbfb23eb2	-1.3925383
219	0xbe995dec	-0.2995447
220	0x3e7de2f2	0.24793604
221	0xbe7a6127	-0.24451123
222	0xbf214a2b	-0.63003796
223	0xbf35850f	-0.70906156
224	0x3ea06f98	0.3133514
225	0xbfeb7cb9	-1.8397437
226	0xbcfcfb0e	-0.030881431
227	0x3f18f13d	0.597431
228	0x3f6d6d7f	0.927452
229	0xbe094862	-0.13406518
230	0x3e067651	0.13131072
231	0xbc0a71ab	-0.008449952
232	0xbf00a2bd	-0.5024832
233	0xbe8781b9	-0.26466158
234	0x3f4cdc9f	0.8002414
235	0xbf26425b	-0.64945
236	0xbf0db960	-0.55360985
237	0xbe9330f6	-0.28748292
238	0xbf5c04f8	-0.8594508
239	0xbe73458b	-0.23756997
240	0xbfa40d3c	-1.2816539
241	0xbf9cba41	-1.224434
242	0xbf5ec3e7	-0.87017673
243	0xc00e6c61	-2.225365
244	0xbdb7225b	-0.089421
245	0x3e432453	0.19056825
246	0x3e0ffc04	0.1406098
247	0xbdc20ce8	-0.09475118
248	0xbe35c959	-0.1775259
249	0xbc7b4b60	-0.015337795
250	0xbe99d7c6	-0.30047435
251	0x3e4d796c	0.2006585
252	0xbfb469a1	-1.4094735
253	0xbf3a326f	-0.72733206
254	0xbf2e91af	-0.68191046
255	0xbe33962b	-0.17537753

net.0.bias f4 [128]
0	0xbed770c2	-0.42078215
1	0x3eeae756	0.4587962
2	0x3b2a432c	0.002597998
3	0x3e399218	0.18122137
4	0xbdb15b5c	-0.086600035
5	0x3eb5b280	0.35487747
6	0x3d171a0e	0.036890082
7	0xbeb4d9a9	-0.35322312
8	0xbde9c92d	-0.11415324
9	0xbe55f74c	-0.20895118
10	0xbe1ae844	-0.15127665
11	0x3e7703ed	0.24122591
12	0xbe8c2b6b	-0.27376875
13	0xbe580ada	-0.2109789
14	0xbc92eda2	-0.017935578
15	0x3e0fd993	0.14047842
16	0x3e1bce97	0.15215527
17	0xbe917fef	-0.28417918
18	0x3d091a7f	0.033472534
19	0xbeedcb3b	-0.46444115
20	0x3ee1faba	0.44136602
21	0xbdd7717f	-0.105196945
22	0xbec35280	-0.3814888
23	0xbcbb5c66	-0.022871207
24	0xbed4b86e	-0.4154696
25	0x3e14c266	0.14527282
26	0xbe01bbce	-0.12669298
27	0xbeb2e59c	-0.34940803
28	0xbd928a38	-0.071552694
29	0x3e385784	0.18002135
30	0xbe45321a	-0.19257393
31	0x3e390fee	0.18072483
32	0x3befd8de	0.0073195538
33	0xbd66d91c	-0.056359395
34	0x3d38388d	0.044975806
35	0x3e982ef1	0.29723313
36	0x3eadc410	0.33938646
37	0x3db4b97d	0.088244416
38	0x3e5ac95e	0.21365878
39	0x3eb01fe5	0.34399334
40	0x3e265c82	0.16246226
41	0xbe804aa5	-0.2505695
42	0x3e5369e8	0.20645869
43	0xbe2a9c61	-0.16661216
44	0x3e9e22ac	0.30885828
45	0x3e23bf7c	0.15991014
46	0xbd4b0dd9	-0.049573753
47	0xbe95d6e4	-0.2926551
48	0x3e1becc9	0.15227045
49	0xbe69d5e0	-0.22835493
50	0x3eb1e48a	0.34744674
51	0xbea93943	-0.330515
52	0xbe1a34d5	-0.15059216
53	0x3e854674	0.26030314
54	0x3e01c434	0.12672502
55	0xbdd7a31a	-0.10529156
56	0xbd9b1ed4	-0.075742394
57	0xbefb16fc	-0.49040973
58	0x3eaf7e69	0.3427613
59	0x3e15f028	0.14642394
60	0xbe5ab77a	-0.21359053
61	0x3dedd17b	0.11612221
62	0x3e8be82c	0.2732557
63	0xbddad9c3	-0.10686066
64	0x3f361be5	0.71136314
65	0xbdc336f8	-0.09531969
66	0xbdbd0320	-0.09229112
67	0xbe456f9d	-0.19280858
68	0xbe4b76a5	-0.19869478
69	0xbbd7b20a	-0.006582503
70	0xbe12b971	-0.14328553
71	0xbe8103cc	-0.2519821
72	0xbe25a58d	-0.16176434
73	0x3e88b525	0.26700702
74	0x3d046d87	0.032331016
75	0x3c95321b	0.018212369
76	0xbe3d3519	-0.18477286
77	0xbec81233	-0.39076385
78	0xbdb5d67c	-0.088788
79	0xbd652140	-0.055939913
80	0xbe241626	-0.16024074
81	0x3dfeda7d	0.12444017
82	0x3ed4d655	0.41569772
83	0xbe315805	-0.17318733
84	0x3e8cb281	0.27479938
85	0x3ed68b6a	0.4190324
86	0x3ed33ec1	0.41258815
87	0xbe5c017d	-0.21484943
88	0xbe83556d	-0.25651112
89	0x3e9ab4c0	0.30216026
90	0x3e2ccc68	0.1687485
91	0x3d4c2a93	0.04984529
92	0xbd27e042	-0.040985353
93	0xbd7f5977	-0.06234118
94	0x3e53806b	0.20654456
95	0xbd65b01f	-0.056076165
96	0x3d22d6d0	0.039755642
97	0xbe52d1ab	-0.20587794
98	0xbeb56738	-0.35430312
99	0xbda03949	-0.07823426
100	0x3edb9f33	0.42894897
101	0x3e05bf02	0.13061145
102	0xbe5657ff	-0.20932005
103	0x3d14a5be	0.036290877
104	0x3e8636b8	0.26213622
105	0x3ecb92d2	0.39760453
106	0xbd93e4bc	-0.07221362
107	0x3d841eab	0.06451162
108	0x3e5b0dec	0.2139203
109	0x3ed193e0	0.40933132
110	0xbd9adf60	-0.07562137
111	0x3e2f3132	0.1710861
112	0xbd88f734	-0.06687775
113	0x3e648c80	0.22319221
114	0xbe2853e0	-0.16438246
115	0xbd0126dc	-0.0315312
116	0xbde147db	-0.110000335
117	0xbe5a5a9d	-0.21323629
118	0x3e779be7	0.24180566
119	0xbe311d5b	-0.17296354
120	0x3e1c542c	0.15266484
121	0x3e915473	0.28384742
122	0xbd7383f4	-0.059452012
123	0xbc9bc988	-0.019016996
124	0x3dcfae93	0.10140719
125	0xbec81e81	-0.39085773
126	0xbd2b6670	-0.04184574
127	0x3eca2d18	0.3948753

net.2.weight f4 [128, 128]
0	0x3cf33cfa	0.029692162
1	0x3d2dda0c	0.042444274
2	0xbcb9f76c	-0.022700988
3	0x3c0fdf70	0.008781299
4	0x3d8ba1c5	0.068179645
5	0x3d65c116	0.056092344
6	0xbc127ec9	-0.008941361
7	0x3d948549	0.072519846
8	0xbda357fe	-0.079757676
9	0xbd8f8d0c	-0.070093244
10	0x3bc57369	0.006025721
11	0xbde07eea	-0.10961707
12	0xbc8fd16c	-0.017555915
13	0x3c5149c0	0.012773931
14	0xbdc94598	-0.09827727
15	0xbd1d335f	-0.03837907
16	0xbd882689	-0.06647975
17	0xbda2e665	-0.079541005
18	0xbd64e125	-0.055878777
19	0x3d89e8bd	0.067338444
20	0x3d12c8e8	0.03583613
21	0xbd1541ce	-0.03643971
22	0x3da35da9	0.07976849
23	0xbd90c4cd	-0.07068787
24	0xbd54c3b5	-0.051944453
25	0x3d356686	0.044287227
26	0x3d804e6b	0.06264957
27	0xbd9d3ef0	-0.0767802
28	0x3d959733	0.073042296
29	0xbd8e2b48	-0.06941849
30	0x3cc8ca6a	0.024510581
31	0xbd60ff76	-0.054931127
32	0xbd91b361	-0.07114292
33	0x3d469046	0.048477434
34	0xbdcc38ba	-0.09971757
35	0xbd74108a	-0.059586085
36	0xbcfffc5a	-0.03124826
37	0xbc03a820	-0.00803569
38	0x3b4d039e	0.0031282674
39	0xbdb3ccd9	-0.08779306
40	0x3d956491	0.07294572
41	0x3c9c8ffc	0.019111626
42	0xbd149dff	-0.03628349
43	0x3d5f92aa	0.05458323
44	0x3da22e09	0.07918937
45	0xbdaffdde	-0.08593343
46	0x3cd1d2fc	0.0256133
47	0x3d0b6bcf	0.03403836
48	0xbc840e54	-0.016120113
49	0xbdded3a8	-0.10880214
50	0x3d75ec9a	0.060040094
51	0xbd4efa81	-0.050531868
52	0xbc241302	-0.010014297
53	0x3d66aa3a	0.056314684
54	0xbd184bc6	-0.03718164
55	0xbdbffd3b	-0.09374472
56	0x3bb7a214	0.005604038
57	0xbda4575c	-0.08024475
58	0x3d9bec62	0.07613446
59	0xbcc7bbf9	-0.024381625
60	0x3cfb41f6	0.030671101
61	0xbdea9e7c	-0.1145601
62	0xbd286978	-0.041116208
63	0xbd6b8597	-0.057500448
64	0xbd345969	-0.04403058
65	0xbde458a4	-0.11149719
66	0xbc517a10	-0.01278545
67	0xbd60be3c	-0.05486892
68	0x3d092204	0.033479705
69	0xbdad3a65	-0.084584035
70	0x3bd4f509	0.006498937
71	0xbdda09c7	-0.10646396
72	0x3d410556	0.04712423
73	0x3b325140	0.0027209073
74	0xbb0a3be0	-0.0021092817
75	0x3d0f3f55	0.034972508
76	0x3d33c0ae	0.043884926
77	0xbd600653	-0.05469353
78	0x3c4b4398	0.012406252
79	0xbba1e5d0	-0.004940726
80	0xbdfa9ec0	-0.122373104
81	0x3cd652ac	0.026162468
82	0xbcfde3b0	-0.030992359
83	0xbcd5bcf6	-0.02609108
84	0x3d405b16	0.046961866
85	0xbd2ecda3	-0.04267658
86	0xbda1c8b3	-0.078996085
87	0xbdc55b0a	-0.09636505
88	0x3bc7c280	0.0060961843
89	0xbd95a0e4	-0.07306078
90	0xbd70f9c6	-0.058831953
91	0x3d12198a	0.035668887
92	0x3c7558e2	0.014974805
93	0x3c563de7	0.013076282
94	0xbd88c978	-0.06679052
95	0x3d810845	0.063004054
96	0xbd28aa26	-0.04117789
97	0xbdb187eb	-0.086685024
98	0x3d754f62	0.05989016
99	0xbde19c00	-0.11016083
100	0xbd994d34	-0.074854285
101	0x3d838301	0.064214714
102	0xbc18b66b	-0.009320836
103	0x3d6c3052	0.05766327
104	0xbd9d211c	-0.07672331
105	0x3cec7c78	0.028867945
106	0x3d555b16	0.05208882
107	0xbcd60d97	-0.026129527
108	0xbd1602ef	-0.03662389
109	0xbd4a663b	-0.0494139
110	0x3d8190d7	0.06326454
111	0xbd964cab	-0.07338842
112	0x3b28983a	0.00257255
113	0xbdb32df6	-0.08749001
114	0x3dadb85f	0.084824316
115	0x3d15d0de	0.036576144
116	0xbd9558de	-0.07292341
117	0xbdb9deff	-0.09075736
118	0xbd971950	-0.07377875
119	0xbd8533f8	-0.06504053
120	0xbd06a764	-0.03287448
121	0x3d91c8af	0.071183555
122	0xbd396f5f	-0.045272227
123	0x3c232f60	0.009960026
124	0x3ceb8d90	0.028754026
125	0xbd0a3e32	-0.03375072
126	0x3db2b6c1	0.08726264
127	0x3ce68a94	0.028142251
128	0x3c50b92d	0.012739462
129	0xbea28b21	-0.31746772
130	0x3eb7c51a	0.35892564
131	0x3dbc2a3f	0.09187745
132	0xbd6356d8	-0.055502743
133	0xbf8c0186	-1.0937965
134	0xbd8925a6	-0.06696634
135	0xbd5dd65a	-0.0541595
136	0x3a016fd6	0.00049376243
137	0xbf0481a0	-0.5176029
138	0x3fb6ce89	1.428178
139	0x3e3b12b7	0.18268858
140	0xbdb24640	-0.087048054
141	0x3c415888	0.011800893
142	0xbe6394a4	-0.2222467
143	0xbd03393c	-0.032037005
144	0x3de5b118	0.112154186
145	0xbf439ee9	-0.7641435
146	0xbf267353	-0.6501972
147	0xbe0f7dcd	-0.14012833
148	0x3d63e9b6	0.055642806
149	0x3deba589	0.11506183
150	0xbbaeaf00	-0.00533092
151	0xbf9ac268	-1.2090578
152	0x3d453c46	0.048153184
153	0x3d85978e	0.065230474
154	0x3d5a6f36	0.053328715
155	0x3d77949a	0.060444452
156	0x3d547212	0.0518666
157	0x3e8df6c7	0.2772734
158	0xbe207f74	-0.1567362
159	0xbf39830a	-0.72465575
160	0x3e05b9fd	0.1305923
161	0xbcfe9d28	-0.031080797
162	0xbf52f5c2	-0.82406247
163	0xbf804e8f	-1.0023974
164	0x3e6b56e2	0.22982362
165	0x3e2fb13f	0.17157458
166	0xbf137360	-0.57597923
167	0xbf1e859f	-0.6192264
168	0x3e06ab16	0.13151202
169	0x3db38497	0.08765524
170	0x3d7f4dc5	0.062330026
171	0xbd1b8e21	-0.03797734
172	0xbf98fc83	-1.195206
173	0xbf177964	-0.591696
174	0xbf009766	-0.50231016
175	0xbedf1255	-0.43568674
176	0x3e58892e	0.2114608
177	0xbd24ef86	-0.04026749
178	0x3e6b3f0d	0.2297327
179	0xbd896b7a	-0.06709953
180	0xbf226229	-0.6343103
181	0xbcee57a8	-0.029094532
182	0xbfbae6a0	-1.4601631
183	0xbf1a4618	-0.60263205
184	0xbe9fbdbb	-0.3119944
185	0x3bbdb39e	0.0057892343
186	0x3e534106	0.20630273
187	0xbedc5c63	-0.43039235
188	0xbfc812e0	-1.563076
189	0xbf96fbf9	-1.1795646
190	0x3e9bb297	0.3040969
191	0xbe12475d	-0.14285035
192	0x3dc04631	0.09388388
193	0xbf91b6b7	-1.1383885
194	0x3d2c1a56	0.042017303
195	0xbefc1913	-0.4923788
196	0xbe32b739	-0.17452706
197	0x3e8da475	0.27664533
198	0xba33024a	-0.0006828649
199	0xbe903bc2	-0.28170592
200	0x3d2a6b4a	0.041606225
201	0xbf19d820	-0.60095406
202	0x3e5ced5e	0.21574923
203	0xbf0de284	-0.5542376
204	0x3caac988	0.02084805
205	0x3d8847e5	0.06654338
206	0x3ad57d40	0.0016287938
207	0x3e900281	0.2812691
208	0xbef4cd7e	-0.47813028
209	0x3e86a9be	0.26301378
210	0x3c36cd48	0.011157341
211	0x3d570656	0.052496277
212	0xbe4fd4ba	-0.20295992
213	0xbf084ee5	-0.53245384
214	0x3e38cd77	0.18047129
215	0xbf51deee	-0.8198079
216	0x3c3273a8	0.010891832
217	0x3c4ff251	0.01269205
218	0xbec01d45	-0.3752233
219	0x3e958ccf	0.2920899
220	0xbf773201	-0.96560675
221	0xbec6f221	-0.38856605
222	0x3ce45ef0	0.027877301
223	0x3e6ace43	0.22930245
224	0x3e72b2b3	0.23700981
225	0x3c99d1fe	0.01877689
226	0x3dac7811	0.08421338
227	0xbed2f1ea	-0.4120019
228	0x3e834ea7	0.25645944
229	0x3ebab244	0.3646413
230	0xbf5760b0	-0.8413191
231	0x3ecb6685	0.39726654
232	0x3e99d13e	0.30042452
233	0xbfb75c12	-1.4324973
234	0x3e9eb8d3	0.31000385
235	0xbf027653	-0.509618
236	0xbf3bab86	-0.733086
237	0x3e159d7c	0.14610857
238	0xbf07c792	-0.53038895
239	0xbda9e45f	-0.082955115
240	0x3f2a3054	0.6647999
241	0xbf3b64f2	-0.73200905
242	0x3eb75308	0.35805535
243	0x3d7f71e2	0.062364466
244	0x3eab67c5	0.33477607
245	0xbe9dfb38	-0.30855727
246	0xbeadfbff	-0.3398132
247	0x3ee8a456	0.45437878
248	0xbd2975e1	-0.041372184
249	0xbdb311a5	-0.087436
250	0x3ebc7c79	0.36813715
251	0x3e870c9d	0.2637681
252	0x3ec555d7	0.38542053
253	0xbd3dbad8	-0.046320766
254	0x3d7b52a2	0.0613581
255	0x3e07aeed	0.13250323

net.2.bias f4 [128]
0	0xbd70a0e6	-0.058747195
1	0x3e707779	0.23483075
2	0x3c8e4c8a	0.017370481
3	0xbdf32103	-0.11871531
4	0xbda39899	-0.0798809
5	0x3ceede51	0.029158743
6	0xbd89556a	-0.067057446
7	0x3ed465a0	0.41483784
8	0x3e997ea7	0.2997944
9	0xbc940c65	-0.018072316
10	0x3cddbf7d	0.027068848
11	0x3e723f74	0.23657018
12	0xbd728ae4	-0.059214488
13	0xbd665188	-0.056230098
14	0x3dc03e5f	0.09386896
15	0xbd966e7d	-0.07345293
16	0x3d641a31	0.05568904
17	0xbde73791	-0.11289895
18	0xbde665a8	-0.11249858
19	0x3eab307c	0.33435428
20	0xbdb396ab	-0.08768972
21	0x3c80769e	0.015681561
22	0x3ea32446	0.31863612
23	0xbdb97c92	-0.09056963
24	0xbd0964c5	-0.033543367
25	0x3c663fda	0.014053309
26	0xbdfb564c	-0.12272319
27	0xbd9c7200	-0.07638931
28	0xbd8288ba	-0.06373735
29	0xbd293cc7	-0.041317727
30	0xbcdd86f1	-0.027041884
31	0x3c4e78a9	0.01260201
32	0x3c9e9723	0.019359177
33	0xbd1af198	-0.037828058
34	0x3cb9cea6	0.022681545
35	0x3ba13ee5	0.0049208277
36	0x3e9ce71d	0.30645075
37	0x3d8c9aee	0.06865488
38	0xbd1acaac	-0.03779094
39	0xba7e62ee	-0.0009704073
40	0x3eb8c1d1	0.3608537
41	0x3ca81517	0.020517869
42	0xbd62de7e	-0.055387966
43	0xbccb8e32	-0.024848077
44	0xbcc72bde	-0.02431291
45	0x3e22ced2	0.15899208
46	0xbcfb1c60	-0.030653179
47	0xbdcb5145	-0.0992761
48	0xbdbfeb14	-0.093710095
49	0xbdb7cdbc	-0.089747876
50	0x3e1723f5	0.1475981
51	0x3d9b5e8c	0.07586393
52	0x3e19d2cb	0.15021817
53	0xbd1b5eb2	-0.037932105
54	0x3e2e665d	0.17031236
55	0x3e01955b	0.12654631
56	0x3c3b6fd2	0.011440234
57	0xbd9edc4a	-0.077568606
58	0x3d509807	0.050926235
59	0xbc9ba9e5	-0.01900191
60	0xbd1b2cd6	-0.037884556
61	0xbdb8d317	-0.09024637
62	0xbdbfd08c	-0.09365949
63	0xbdafcdd5	-0.08584181
64	0x3cb5f063	0.022209352
65	0x3dd1d8dd	0.102464415
66	0xba4d5353	-0.00078325457
67	0xbcce0297	-0.02514772
68	0xbd289eba	-0.041167
69	0xbced0ce8	-0.028936818
70	0xbd1016f1	-0.03517813
71	0x3e14749e	0.14497611
72	0x3dea3407	0.11435705
73	0x3db5adb4	0.08871022
74	0xbd878ec6	-0.06619029
75	0x394a00ed	0.00019264566
76	0x3e6e2ba6	0.23258838
77	0x3e7f18db	0.24911825
78	0x3d923348	0.07138687
79	0xbd8a229f	-0.06744885
80	0xbdeb1ee4	-0.11480501
81	0xbddacd77	-0.106837206
82	0xbaf29fb7	-0.0018510733
83	0x3e300bf3	0.17192058
84	0xbd97e424	-0.07416561
85	0xbdbeba06	-0.09312825
86	0xbce1fea8	-0.02758725
87	0x3c58b591	0.013226883
88	0xbd3bab6f	-0.04581779
89	0xbe1327f1	-0.14370705
90	0xbd8c7162	-0.068575636
91	0xbbbb9a5a	-0.0057251872
92	0x3e3afa1c	0.18259472
93	0xbe0e7b99	-0.13914336
94	0xbdb93a33	-0.09044304
95	0xbe8bf1a2	-0.2733279
96	0x3dffa847	0.12483268
97	0xbd849d48	-0.064753115
98	0xbcf7fe2d	-0.030272568
99	0x3d2d24bb	0.042271357
100	0xbd6583ad	-0.05603378
101	0xbcdb99cf	-0.02680674
102	0x3e304cef	0.17216848
103	0xbd047cc8	-0.032345563
104	0x3e331f6a	0.17492452
105	0xbdbfffad	-0.09374938
106	0xbdbbd044	-0.09170583
107	0x3ea89483	0.32925805
108	0xbdad09e7	-0.08449154
109	0x3cf3c5c0	0.02975738
110	0x3e236d0b	0.15959565
111	0xbdad24bb	-0.084542714
112	0x3e9badd0	0.30406046
113	0xbe05c49a	-0.13063279
114	0xbc5a222d	-0.013313812
115	0xbce5794d	-0.028011942
116	0xbdbbdfab	-0.09173521
117	0xbe5ff2ef	-0.21870016
118	0x3d0d206a	0.03445474
119	0xbca2015e	-0.019776043
120	0x3d96a2e3	0.07355287
121	0x3cee0487	0.029054893
122	0x3e67dcf1	0.22642876
123	0x3ecc17a6	0.39861792
124	0x3dc3a3c1	0.09552718
125	0xbe3c7c66	-0.18406829
126	0x3e9bc991	0.3042722
127	0x3e790d7b	0.24321549

net.4.weight f4 [9, 128]
0	0xbd55878f	-0.052131232
1	0xbe7ec019	-0.24877967
2	0xbd377636	-0.04479047
3	0x3d914e71	0.0709504
4	0xbd904fb6	-0.07046454
5	0xbccfad9c	-0.025351338
6	0xbd29ace6	-0.041424654
7	0xbe83d65a	-0.25749475
8	0xbeea2ea2	-0.45738703
9	0x3ecf5ff9	0.4050291
10	0xbcdaa5c2	-0.026690368
11	0xbece6670	-0.4031253
12	0x3bb384a4	0.0054784585
13	0x3ce0e16c	0.02745124
14	0x3b866a9b	0.004102064
15	0x3c471de0	0.012153119
16	0x3ed15d14	0.40891325
17	0xbd47a5c1	-0.04874206
18	0x3d03aa5e	0.032144897
19	0xbe39e9ed	-0.18155642
20	0xbcbc21bc	-0.022965305
21	0xbbd745b0	-0.0065695867
22	0x3efc1e66	0.49241942
23	0xbd1d433b	-0.038394194
24	0x3d069d08	0.0328646
25	0x3db1d9e3	0.08684137
26	0xbda5d67c	-0.0809755
27	0xbcc8dcd2	-0.024519358
28	0xbf1eb372	-0.6199256
29	0xbd811fb6	-0.063048765
30	0x3da58edd	0.0808389
31	0x3caab2b8	0.020837173
32	0xbcd2bd2b	-0.025724968
33	0x3d57835f	0.05261552
34	0xbd3537dc	-0.044242725
35	0x3ddd9dcc	0.10821113
36	0x3f112017	0.5668959
37	0x3ce9085d	0.02844637
38	0xbc08cf88	-0.008350261
39	0xbd80bd05	-0.062860526
40	0x3e9d01e5	0.30665508
41	0xbc924778	-0.017856345
42	0xbd9102e4	-0.070806295
43	0x3d64c673	0.05585332
44	0x3d6198b3	0.055077266
45	0xbe210646	-0.1572505
46	0x3bcd2fc0	0.0062617958
47	0x3dbf8c38	0.093529165
48	0xbd369670	-0.044577062
49	0xbcba82b1	-0.022767397
50	0x3e9fdccd	0.31223145
51	0x3e92c434	0.28665316
52	0xbe670374	-0.22559911
53	0xbd7e09c1	-0.06202102
54	0x3f6688ae	0.90052307
55	0xbe56415e	-0.20923373
56	0xbcfe75b1	-0.031061979
57	0x3c8e9103	0.017403131
58	0x3d577dee	0.05261033
59	0xbd2bff3f	-0.04199147
60	0x3d20196a	0.039086737
61	0xbd543e40	-0.05181718
62	0xbc376b31	-0.01119499
63	0xbd544cb9	-0.05183098
64	0xbd8d401e	-0.06896995
65	0xbeb96b97	-0.36214897
66	0x3cab7083	0.020927673
67	0xbd45fde3	-0.04833783
68	0xbbe463af	-0.006969891
69	0x3c28edb8	0.010310583
70	0xbd2fad1c	-0.0428897
71	0x3ee7ea68	0.45296025
72	0x3ebc73a4	0.36806977
73	0xbe37e8ea	-0.17959943
74	0xbd7508b1	-0.059822742
75	0xbd6d2b26	-0.057902478
76	0x3e96369e	0.29338545
77	0xbe2999a3	-0.16562514
78	0xbd10b4a5	-0.035328526
79	0xbcd45f59	-0.025924372
80	0xbc51f518	-0.012814783
81	0xbca16bcd	-0.019704724
82	0x3d46b4c6	0.048512243
83	0xbedaab64	-0.42708886
84	0xbd7233cf	-0.05913144
85	0x3adbbbc0	0.0016764328
86	0x3cc9297c	0.024555914
87	0x3db8824c	0.09009227
88	0x3d392fc2	0.04521156
89	0x3f3b05cc	0.7305572
90	0x3b9713bf	0.004610508
91	0xbd1a2d45	-0.03764083
92	0xbe1227e6	-0.14273033
93	0x3ebb9c2f	0.36642596
94	0x3c31eea3	0.010860118
95	0x3ebf0731	0.37310174
96	0xbce26b9c	-0.027639203
97	0xbc98ba46	-0.01864351
98	0xbd2caab1	-0.04215497
99	0xbd37eea6	-0.044905327
100	0xbe9a3ea1	-0.30125907
101	0x3a777156	0.00094391906
102	0x3eb02db5	0.34409872
103	0xbdb600cf	-0.08886873
104	0xbe482ff6	-0.19549546
105	0xbcce0878	-0.025150523
106	0x3c078398	0.0082711205
107	0x3edb46fd	0.42827597
108	0x3da9b485	0.082863845
109	0x3ea0aeb4	0.31383288
110	0x3e9d7858	0.30755877
111	0x3d4c768a	0.049917735
112	0x3e9d21f1	0.30689958
113	0xbd05e1a6	-0.0326859
114	0x3d424e4f	0.047437962
115	0x3d0367a8	0.032081276
116	0xbb97b158	-0.0046292953
117	0x3e8314f4	0.25601923
118	0x3d4ac8b8	0.049507827
119	0xbd95af66	-0.07308845
120	0x3cae0a26	0.021245074
121	0x3d7670e1	0.060166243
122	0xbe4efd8e	-0.20213911
123	0xbea1c001	-0.315918
124	0x3e900531	0.2812896
125	0xbeee86f9	-0.4658735
126	0x3e84cc49	0.25937107
127	0xbe8e377b	-0.27776703
128	0xbd187c65	-0.037228007
129	0xbe0e75cf	-0.13912128
130	0x3d4b62b7	0.04965469
131	0x3da985e7	0.08277493
132	0x3d7b1054	0.06129487
133	0xbcbb57e4	-0.022869058
134	0xbcaf4c46	-0.021398675
135	0xbebcc9f5	-0.3687283
136	0xbeefbe09	-0.46824673
137	0xbd5b85e2	-0.053594477
138	0x3db203df	0.086921446
139	0xbef3bf6c	-0.4760698
140	0xbd8fe7bc	-0.07026622
141	0xbcfa100f	-0.030525235
142	0x3e332081	0.17492868
143	0x3dd8b90c	0.1058217
144	0xbe88459e	-0.26615614
145	0x3ba9f250	0.0051863566
146	0x3b67fae0	0.0035397336
147	0xbe97a38c	-0.29616964
148	0x3b91afcc	0.0044460054
149	0x3cf36a34	0.029713728
150	0x3ed9755a	0.42472345
151	0xbd82ac45	-0.06380514
152	0x3caf91ad	0.021431768
153	0xbd07e4aa	-0.033177055
154	0x3d02836e	0.031863622
155	0x3c090d56	0.008364996
156	0xbc6d1410	-0.014470115
157	0x3c5e30d6	0.013561448
158	0xbd64085c	-0.055672035
159	0xbd48d0df	-0.04902732
160	0xbe38d8a3	-0.1805139
161	0x3d0e74c4	0.034779325
162	0xbcb0dc5c	-0.02158945
163	0x3d475377	0.048663583
164	0x3e8656e5	0.2623817
165	0x3e49a035	0.1969002
166	0x3d70f6ea	0.058829226
167	0xbd31a2b6	-0.043368064
168	0x3f26549f	0.6497287
169	0x3d2f463a	0.042791583
170	0x3ca6cf52	0.02036253
171	0xbcb95a98	-0.022626206
172	0xbc53a7c2	-0.012918415
173	0x3dc88e8c	0.09792814
174	0xbb1c1040	-0.0023813397
175	0x3ba2c806	0.0049676923
176	0x3d87ba33	0.066273116
177	0x3d624e30	0.055250347
178	0xbe409ece	-0.18810579
179	0x3ef8aa42	0.48567396
180	0xbd92e1d9	-0.07171983
181	0xbcbbf208	-0.022942558
182	0x3e9f8933	0.31159362
183	0x3f0a4569	0.5401216
184	0xbd6ded55	-0.058087666
185	0x3d180297	0.037111845
186	0xbd80748d	-0.0627223
187	0xbdce6035	-0.10076944
188	0xbd9515fc	-0.07279584
189	0x3da3fae3	0.08006837
190	0x3cb119f6	0.021618824
191	0xbdad135b	-0.084509574
192	0xbd231a93	-0.039820265
193	0xbebf542d	-0.3736891
194	0x3c2d0ea0	0.010562569
195	0x3d605caa	0.05477587
196	0x3cf54d58	0.029944107
197	0x3cd6198d	0.02613523
198	0x3c1bf6e8	0.009519316
199	0x3e912820	0.28350925
200	0x3e2f91db	0.17145483
201	0xbd29662f	-0.041357215
202	0x3d5370a5	0.051621098
203	0x3d28d3f6	0.041217767
204	0x3eef0dcd	0.46690217
205	0xbe72798b	-0.23679177
206	0x3e18c8c6	0.14920339
207	0xbd7ecf1a	-0.062209226
208	0xbd82826a	-0.06372531
209	0xbccaa99a	-0.024739075
210	0x3c838920	0.016056597
211	0x3f5ce000	0.86279297
212	0xbcdf1e4b	-0.027236125
213	0x3d292dfa	0.041303612
214	0x3d8f3735	0.06992952
215	0xbc9a97bf	-0.018871186
216	0xbbe65970	-0.0070297047
217	0x3f00f4c0	0.5037346
218	0xbd37e4a8	-0.044895798
219	0x3d816d34	0.06319657
220	0xbdb05aae	-0.08611046
221	0x3ea4e68f	0.32207152
222	0x3d17f6ae	0.037100486
223	0x3ee372df	0.44423577
224	0xbc9e4d1e	-0.019323882
225	0xbd2e8726	-0.042609356
226	0x3cec2284	0.028825052
227	0x3cec40e0	0.028839529
228	0x3e09b98b	0.13449685
229	0xbafffa55	-0.0019529561
230	0x3e829e2e	0.25511307
231	0x3d4b3492	0.04961068
232	0xbea4f300	-0.32216644
233	0xbdab2b1c	-0.08357832
234	0x3d8e2fff	0.06942748
235	0x3ec62f19	0.38707808
236	0x3d67c782	0.05658675
237	0x3e3148b6	0.17312893
238	0x3e86b59d	0.26310435
239	0xbd076e1e	-0.033064
240	0x3ed100c3	0.40820894
241	0x3c8a3b3e	0.016873952
242	0xbd06f7c2	-0.032951124
243	0x3dd5a49e	0.10431789
244	0x3d44219a	0.047883607
245	0x3e82de9a	0.25560457
246	0x3c03c96a	0.008043626
247	0x3b9260b3	0.004467094
248	0xbf0c70ce	-0.54859626
249	0xbd101990	-0.03518063
250	0xbeaf8279	-0.3427923
251	0xbeaaee65	-0.33385006
252	0x3dedd94a	0.1161371
253	0x3f251dc8	0.6449857
254	0x3f189f7c	0.59618354
255	0xbee1e637	-0.44120952

net.4.bias f4 [9]
0	0xbebb8603	-0.3662568
1	0xbe681029	-0.22662415
2	0xbd8f579f	-0.06999134
3	0xbec7bfbc	-0.3901347
4	0xbee87be6	-0.45407027
5	0xbdc00ea5	-0.09377793
6	0xbdef7906	-0.11693005
7	0xbe33df55	-0.17565663
8	0xbe53dcb9	-0.20689668
