Reinforcement Learning/modelos/car_agent_2.pth (torch, 77381 bytes, 6 tensors)

net.0.weight f4 [128, 6]
00000000: cb7a 5abc a61f 183f c884 cb3e 25d3 003c
00000010: ad1e ad3d 0a84 33bf c3c2 6cbf 8d41 84bf
00000020: 1a0e 83bf 6629 2ac0 fbbb ce3d f6b1 953f
00000030: b6bb 053f 79cd f73e 2286 463e 26cb eb3e
00000040: 0f33 363c df3d 3cbf 60a9 98be ab5d 26be
00000050: aad2 cc39 a3ea 253e e7b6 2cbd 42ff 42be
00000060: 1f27 f43d 236f 513e 0a75 d83e cedb ec3e
00000070: 974b f43a 1cf9 25bf 7b8f edbe ceda bbbf
00000080: ab6c 21c0 be35 e5be e2ed 5e3e ba81 0a3f
00000090: d153 a6be 2579 d2bf 5d8e 1abf 3070 e3bd
000000a0: 24a7 363e dd79 20bf 0e7d 66bf 3620 18c0
000000b0: e687 82bf 0afa c33c 3d08 59bd 54a4 89be
000000c0: 126f 013f 6d96 c23d c9a7 e03e c0b5 7e3e
000000d0: 4e81 b43e 1eb9 943e 2734 cdbc 864c a7be
000000e0: 4c1b e03d 76c6 d9be eea7 733d 2bc7 b0be
000000f0: 386c ffbf fdb7 acbf 0f0b 42bf 66a8 ad3c
00000100: c62e a7be 5f09 fb3e 8900 22bf 14ab 26be
00000110: 3f39 4dbd d895 d0bd 3133 393e ad69 7b3f
00000120: 0b7a 0cc0 285b b1bf 6b70 08c0 2717 f6be
00000130: 7ec5 d23e ef77 7f3c 3286 253f 57be fcbe
00000140: b394 8cbe cd12 43bf 2a0c 8b3e 8dff 24bf
00000150: e357 92be 372c fb3d fae7 94be 9aa3 c1bd
00000160: a959 563e e7c5 bd3f fe41 75be 632f 14bf
00000170: 3fbf 7ebe 212f 1bc0 558b 893e 9b68 223f
00000180: 2fc8 f6be 8f77 76bf 0b8f 62bf 24f0 05c0
00000190: 5e31 8abe 427b 0b3f a11e 783e 2fd0 3f3e
000001a0: f011 b23e 2a53 1a3f 11d1 943e d297 b23e
000001b0: f2ea 00be 1031 9c3c 8094 073b f244 83be
000001c0: 0b4e a3be f8fe 84be 7056 15bf 729d 82bf
000001d0: 2600 0abf 102a 793e d6b8 15be f0ab 313f
000001e0: 3a0c 0bc0 c5cc 10c0 76a4 6fc0 d85e e03d
000001f0: 85b9 9abe 79f9 923f 0095 593e 4e81 99bf
00000200: c23c 98bf 83ef e5be 6e19 89be 92cf 8b3e
00000210: 03b0 a8bf f4c2 4abf 5d1b 26bf 6b0d 3b3e
00000220: 78ef 493e 2c0f 913f 1502 9a3e 25eb f43e
00000230: ae4e 02bf c633 51bf f959 82bf 43fc 06c0
00000240: 994e 2abe 15a3 92be 029b 853e 38f6 3dbe
00000250: c8f7 4e3e 2539 7fbe 9c96 a8c0 69a9 adc0
00000260: 4a21 acc0 e9c7 b3c0 ba14 7ac0 41d7 96c0
00000270: 9136 d53e 83cb dd3e 6089 b43e 42bd c7bd
00000280: e360 21be cf26 94be 8f33 be3d 0990 2c3e
00000290: 5cde dfbe 52a2 ad3e 459d babe 23da 0840
000002a0: f12a 23c0 4f81 cfbf d15f ccbf be09 a7bc
000002b0: 8651 a23c 8cce 543f e9df d33e 5212 1a3f
000002c0: 157a bf3e 5e0f 1a3f 0d3a a63d ddad 9c3f
000002d0: 72dd 40be 5b11 bbbf b855 3bbf 4d87 e4bf
000002e0: 89b5 55be ac3c ad3e 98be 883e fd8b cfbd
000002f0: c282 8c3e 62a8 fc3e 9fb8 d43e e444 5dbf
00000300: 6407 bebf 6e4c 04bf ec61 54bf d216 163d
00000310: dc4e ad3d 3d19 ff3e dc24 3bc0 1d4c d3bf
00000320: 0a50 ddbf c6cb 39be 0bf8 133e 2b82 5dbf
00000330: f673 64be 6cbe 20be 1d31 17bf a41b fdbe
00000340: 24b4 26bf e59b 853f 40c3 59c0 e9bc 7ac0
00000350: 69f1 78c0 f33a 64c0 041a 24c0 77d5 c1bf
00000360: 5efb 543e aed6 8ebf 2e97 2cc0 8b60 813e
00000370: 809c b13d 3cc1 293f a1dc d73e b4be 603e
00000380: b185 ed3d 6f4e 1d3f 7248 33be 9543 11bf
00000390: ba9b a7bf 66c1 debe 590d f9be 7c14 073e
000003a0: 7d2a 3b3e dbf1 863f d772 4bbe 884d d8bd
000003b0: a0ef 66bc 18bd 3e3e b782 c9be b0d2 2c3d
000003c0: c886 033e 5848 093e 302f 0f3f ddb3 043f
000003d0: 1c2c 283e 7e8d 7d3f 5e80 183e 2dc8 d4be
000003e0: 4c59 963e ad1a 6ebe 098a 24bd 6fad a83f
000003f0: 506d eabd 3498 bebe c890 bd3e 40dd 9fbb
-0.01333494 0.5942329 0.39749742 0.007862841 0.084531166 -0.7012335 -0.9248468 -1.0332505
-1.0238678 -2.6587768 0.10094448 1.1694934 0.5223955 0.4839895 0.19387105 0.46053427
0.011120572 -0.7353191 -0.29816723 -0.16246669 0.0003906687 0.16202788 -0.042166617 -0.19042686
0.11921524 0.20452552 0.42276794 0.46261448 0.001863825 -0.64833236 -0.4639853 -1.4676149
-2.5222576 -0.44767565 0.21770433 0.541042 -0.32485822 -1.644322 -0.6037348 -0.111053824
0.17837197 -0.6268595 -0.9003457 -2.376966 -1.0197723 0.023922939 -0.052986372 -0.26883185
0.50560105 0.09501348 0.4387801 0.2487402 0.35254902 0.29047483 -0.025049282 -0.3267557
0.109427065 -0.42534226 0.059486322 -0.34526953 -1.9954901 -1.3493649 -0.75798124 0.021198463
-0.32652873 0.49030587 -0.63282067 -0.16276199 -0.050103422 -0.101848304 0.18085934 0.98208123
-2.194949 -1.3855944 -2.1318614 -0.4806454 0.411663 0.015592559 0.6465789 -0.49363968
-0.27457199 -0.7620056 0.27157718 -0.6445244 -0.28582677 0.12264293 -0.29083234 -0.09455033
0.2093264 1.482602 -0.23950955 -0.57884806 -0.24877642 -2.4247515 0.26864114 0.63440865
-0.48199603 -0.9627618 -0.88499516 -2.092782 -0.2699079 0.5448495 0.24230434 0.1873176
0.3477931 0.6028315 0.29065755 0.34881455 -0.12589625 0.019066364 0.0020687878 -0.2563854
-0.3189548 -0.25975776 -0.5833502 -1.0204298 -0.53906476 0.24332452 -0.1462129 0.6940298
-2.1726213 -2.2624981 -3.744413 0.1095559 -0.30219665 1.1482383 0.21248245 -1.1992586
-1.1893542 -0.44909295 -0.26777214 0.273068 -1.3178715 -0.79203725 -0.64885503 0.18266837
0.19720256 1.1332755 0.30079713 0.4783565 -0.50901306 -0.81719625 -1.0183707 -2.1091468
-0.16631545 -0.28640047 0.26094824 -0.18550956 0.20211709 -0.24924143 -5.268385 -5.42693
-5.3790636 -5.618153 -3.907515 -4.713776 0.41643193 0.4331933 0.3526106 -0.09752895
-0.15759616 -0.2893586 0.09287178 0.1685182 -0.43724334 0.33912903 -0.36448112 2.138314
-2.549496 -1.6211337 -1.5966741 -0.020390388 0.019814264 0.83127666 0.41381767 0.60184205
0.3739783 0.601797 0.08116541 1.2240559 -0.18834475 -1.4614671 -0.7317767 -1.785379
-0.20870031 0.3383535 0.26707911 -0.101341225 0.2744351 0.49347216 0.41547105 -0.86433244
-1.4846005 -0.5167912 -0.82961917 0.036642857 0.08462307 0.49823943 -2.9241247 -1.6507603
-1.7290051 -0.1814414 0.1445009 -0.86526746 -0.2230986 -0.1569764 -0.59059316 -0.4943515
-0.6511862 1.04382 -3.402542 -3.9177802 -3.8897345 -3.566098 -2.5640879 -1.5143269
0.20799014 -1.1159265 -2.6967273 0.2526897 0.08672428 0.6631048 0.42160514 0.21947747
0.11597765 0.61447805 -0.17508104 -0.56743747 -1.3094399 -0.43506926 -0.48642996 0.13191408
0.18277927 1.0542558 -0.19868027 -0.10561663 -0.014095217 0.18626821 -0.3935754 0.042193115
0.12844384 0.13406503 0.5593138 0.5183695 0.16423076 0.99044025 0.14892718 -0.41558972
0.29365003 -0.23252364 -0.040170703 1.3177928 -0.11446631 -0.37225497 0.37024522 -0.00487867

net.0.bias f4 [128]
00000000: 89b5 a7bd 5c41 34ba c460 8439 9a32 34be
00000010: 4966 20bd 83b7 963e 85cf 903e 2592 bd3e
00000020: 41ec 88be dbc6 87bd 7ab2 b13e d875 5fbe
00000030: 1cbc 383e 6abd 593e 6a14 17be ad91 24bd
00000040: f1ab ac3e 98b4 1dbe 10fc 82be 5522 8abe
00000050: c5e8 af3e 4e68 eebd c732 383e 87f3 193d
00000060: ce84 4ebe a72a b73e fbdb 2f3e b62e e33c
00000070: f5ff d73d 40e6 6bbd 4298 c23e 81da 08be
00000080: 00f0 473e 8de1 d43e 8a31 dc3e 6ccb 003f
00000090: ce9d e1bd 79e9 8f3e 196f 593e 4832 97bd
000000a0: 6155 3ebd 54cb be3d b918 c3be e2b5 93be
000000b0: 4668 953e 78d5 7cbd 811b 87bc a546 92be
000000c0: 33ce e6bb 1585 903e 6ff4 86be 711b 9f3e
000000d0: 7bf1 bdbe e044 94be 63b3 1cbc 81b6 bf3e
000000e0: a410 f43e 81fa a03e c8f8 88bd 40c4 d73e
000000f0: d613 50be 1762 ca3d ba1a 0e3e 5fd3 59bd
00000100: 1def 353e ed3b aabd e5fc fbbc 2b7e 613d
00000110: d850 73be bf4c a53e 1e65 83be eb4f 943e
00000120: 628b c5be 3e86 f5bd 23bc 06be d9ba 9b3e
00000130: b708 b23e 5fad 7abd bda5 91be 525e 1d3f
00000140: 98c9 ac3e 3aa3 123e c0cf eabd 360d d73e
00000150: b782 9c3d 1db3 03be 6aee 6ebd 7092 9e3e
00000160: 2fc6 42be a911 80bd 3e7d c63e e749 8bbe
00000170: 79aa ca3e 617c 16bd e0cf 133e 3b37 d1bd
00000180: 43d0 903c 3918 58be 9da1 1c3f 4cf8 28be
00000190: e84d f83e 1ec7 b9be f36c 6f3e 7f7d 78bd
000001a0: acaf 9c3e 8acb e7bd f13a 733e 513c 01be
000001b0: a662 b8be 38d0 903d c0f9 2e3e 3d61 ac3e
000001c0: f83d 043e 8211 64be d841 29bd de6d 22be
000001d0: f8a4 92be 565c 283e f194 893e 6742 e63e
000001e0: f52a 823e af9a 823e d4e9 14bd 4a61 c339
000001f0: 6077 793e dd82 b6be b246 073e 9922 a63e
-0.08188922 -0.00068761944 0.00025249098 -0.17597428 -0.039160047 0.29436883 0.28283325 0.37025562
-0.26742747 -0.066297255 0.3470648 -0.21822298 0.18040508 0.21263662 -0.14753881 -0.04017799
0.3372493 -0.15400922 -0.25582933 -0.26979318 0.34357277 -0.11640988 0.1798812 0.03758576
-0.20167848 0.3577473 0.1717376 0.027732234 0.10546867 -0.05759263 0.38006788 -0.13364603
0.19525146 0.41578332 0.43006545 0.503104 -0.11016427 0.28107813 0.21233787 -0.07382637
-0.046468142 0.093161255 -0.381048 -0.28849703 0.29181117 -0.061727017 -0.016492607 -0.28569523
-0.007043624 0.28226534 -0.26358363 0.31075624 -0.37098297 -0.28958797 -0.0095642535 0.37443927
0.47668946 0.3144112 -0.06688076 0.42141914 -0.20320067 0.098819904 0.13877383 -0.053180095
0.17766996 -0.08312211 -0.030760238 0.055051964 -0.23761308 0.32285115 -0.25663084 0.28967223
-0.38582903 -0.11988495 -0.13157706 0.3041599 0.34772274 -0.061200496 -0.2844676 0.61472046
0.33747554 0.14320078 -0.114654064 0.42002267 0.076421194 -0.12861295 -0.058332838 0.30971098
-0.19020914 -0.062533684 0.38767427 -0.2720482 0.39583185 -0.03673971 0.14434767 -0.102156125
0.017677432 -0.2110299 0.611841 -0.16500968 0.48496938 -0.36284727 0.23381405 -0.060666557
0.30602777 -0.11318119 0.23752953 -0.12620665 -0.36012763 0.070709646 0.1708746 0.33667937
0.12914264 -0.22272304 -0.04132256 -0.15862224 -0.28641486 0.16441473 0.26871446 0.44972536
0.254234 0.2550864 -0.03635581 0.00037265784 0.24361944 -0.35646716 0.13210562 0.3244827

net.2.weight f4 [128, 128]
00000000: 8187 273f 18d8 a7be a156 f43e 5475 d43c
00000010: 1bca 913f 4d49 2f3e ff91 383e 64eb 033e
00000020: b855 0cbf 2c40 a53c 880b 2c3b 2090 a0bf
00000030: 4567 053e ecf5 cf3e c39b b8be eee2 9abe
00000040: d663 2a3e 70b5 0cbf 952f 91bd b00a 16bc
00000050: e185 5e3d c106 11bf 4f00 21bd 8bc1 8dbe
00000060: 3dbc 85bd 795c a2bf a4ff c9bd f038 943e
00000070: 1774 1ebe e7c2 b7bf a6b2 8c3e d8ed 0e3f
00000080: e49e ccbc df25 163e eb0e c93e bfcf 47bd
00000090: 8ca1 b7bf a7be 2bbe 9d2a e9bd ef60 833d
000000a0: 676d 72bf 382b 4bbe 42d2 34bd e212 2b3d
000000b0: 53cd 113d 25c1 bbba 32e5 1abf 5c2a 46bd
000000c0: 4468 d9be 980a 6b3f 7d65 a93d 79c4 01be
000000d0: e8f0 a2bc 48be 42be 48bf 6e3d 50a8 09be
000000e0: e4cd a83d f30b 293e fa03 4a3d b61a 2b3e
000000f0: 1882 363c 8a7b 24be b958 c93d ce09 40bf
00000100: 775f e33c 9fb4 c2bf d0a9 b23e c5d2 083f
00000110: c510 913d bbf3 f73d f8cc 52bd f7a2 6fbe
00000120: f686 603d bbf8 6cbd 6e7e 203e 391f 91bb
00000130: cab8 353d 6558 043b 067c 5d3d 4ab1 083e
00000140: 0ed4 85bf 840d e3bd 1ae9 8d3d b2a4 123f
00000150: ace5 90be 5ac2 643e 2e1d ecbf 1af0 f4bd
00000160: 6c7f 87bb 91c0 55bf 7dd5 ed3c e571 313d
00000170: 6371 733d d750 6fbe f05e 303e f08a 7fbe
00000180: 3f33 ffbe 3016 09bc bb2c 853d 4f15 dabe
00000190: 74ce 6f3e 50b5 b1bb 5ef8 ebbc f7de cd3e
000001a0: 7e5c 203e 5e75 403d dd4e 103e 176e c1be
000001b0: 08b5 4b3c 5140 883e 0693 643c 89b2 c73e
000001c0: 75eb cc3e 95a8 a93d e41e fdbc 7480 81be
000001d0: af90 04bd 402b 31be a2b9 85bd 23b8 98be
000001e0: 6d24 773c 8f37 99bd a1d2 63be 7573 6cbf
000001f0: 4157 e43e 9f57 b23d 2e93 eabe 1f73 dc3d
00000200: 8e50 dc3c 46d0 f4bc 9fa2 6d3c a13e 0abd
00000210: c555 c0bd 1445 d33c 0183 18bd e751 dabc
00000220: 9408 ce3c f44f c2bd 4170 7bbc 98a5 ddbd
00000230: e441 333d 3f98 dcbc dca4 003c 761e 5a3d
00000240: beea fb3c d85d e7bd f09e 82bd fed5 1d3d
00000250: 32dd e1bd 0005 b5b9 342e 643d cd2d c3bc
00000260: 3c0e f23c 67bb a3bd 4f0e 723d 36aa 093d
00000270: cb5d 21bd a2a8 7d3d d497 583d fca5 093c
00000280: 2e72 d33b c05c c7bd b135 9abd 9604 6cbd
00000290: 3dc3 8d3d 9cb7 31bd bb98 cdbc b2e3 83bd
000002a0: 3731 a6bd 8be6 7b3d e0b7 4e3c 30d2 2fbc
000002b0: 1614 e3bc 7610 c3bd d88d b5bc a070 37bc
000002c0: a3b8 97bc aaf0 dfbd c1cb 59bd 622a 9bbd
000002d0: a6c1 a1bd a20d a4bd e7ba 88bd dfc0 5abd
000002e0: e827 6c3d 0cc0 babc 7ee7 0a3d 328b d4bd
000002f0: 5a12 1c3d c514 0dbd 6153 b0bd f3de 833b
00000300: bc9b a5bd 52f5 4d3d 6c74 543d f0ee ebbd
00000310: 00bf ce3a 6060 38bd 086c 543c 00e8 2cbd
00000320: 5e71 703d 3a92 32bb 03ac 1cbc 8215 243b
00000330: 38e3 483d f68c dabc c950 05bd 1ecc bcbd
00000340: 88ce 353c 3bf3 2d3d 0e6b cbbd 5329 96bc
00000350: 9166 bcbd ae1c 6a3d a07e 93bd 35c5 d1bd
00000360: 1c01 8f3d 2230 7ebd b900 c13c 3df9 55bd
00000370: 07ac a6bd 3834 c1bd a175 f2bc 739e a0bd
00000380: fbee 5d3d 8e47 92bd a46e 77bd dd8c 2dbd
00000390: 08c6 3b3d beef 5a3d 7ef6 c3bd 7620 2a3d
000003a0: 265e 1f3d 9c2b cdbc 42b4 91bd 1af7 103d
000003b0: 94e7 4abd c418 9ebd 8878 28bd 0bf1 ca3d
000003c0: 97c0 2b3d 7f64 07bd eeeb 583d 8979 aabd
000003d0: 7ffd 1abd ac19 83bc 2089 e93c 3094 083d
000003e0: 0551 b7bd 175f 6f3d c502 f4bc 9947 bf3c
000003f0: 563b 9bbd 5087 d03b 2151 48bd d921 7bbd
0.6544114 -0.32782054 0.47722343 0.025934853 1.1389803 0.17117806 0.18024443 0.12882763
-0.54818296 0.020172201 0.002625199 -1.2543983 0.13027675 0.4061731 -0.36056337 -0.3025126
0.16639647 -0.5496435 -0.07089154 -0.009157822 0.054326896 -0.5665093 -0.039306935 -0.27686724
-0.06530044 -1.268447 -0.09863213 0.2894969 -0.15473972 -1.4356354 0.27480048 0.5583167
-0.024978109 0.14662884 0.39269194 -0.048782106 -1.4346175 -0.16771947 -0.11385081 0.06414973
-0.94698185 -0.19840705 -0.04414583 0.041766055 0.035596203 -0.0014324529 -0.60505974 -0.04838024
-0.4246236 0.9181304 0.082713105 -0.12672605 -0.019890264 -0.19017899 0.05828789 -0.13443112
0.082423955 0.16508465 0.0493202 0.16709408 0.011139415 -0.16062751 0.09831376 -0.7501496
0.027755482 -1.5211371 0.34895182 0.5344661 0.07083277 0.12107035 -0.051465005 -0.2340201
0.05481621 -0.057854395 0.15673229 -0.004428771 0.04436568 0.0020194289 0.054073356 0.1334888
-1.0455339 -0.11086562 0.06929226 0.57282555 -0.28300226 0.22339764 -1.8446405 -0.11959858
-0.004135063 -0.8349696 0.029032463 0.04332151 0.059434306 -0.23370682 0.17223716 -0.24955344
-0.49843785 -0.008367106 0.06502672 -0.42594382 0.234186 -0.0054232255 -0.028804954 0.4020917
0.15660283 0.04698693 0.14092584 -0.37779304 0.012433298 0.2661157 0.013951069 0.390034
0.4002339 0.082841076 -0.030898519 -0.25293314 -0.032364544 -0.17301655 -0.06529547 -0.29827985
0.015084368 -0.074813 -0.22248317 -0.92363673 0.4459782 0.08708119 -0.45815414 0.10764145
0.02689388 -0.029884469 0.014504104 -0.033751134 -0.09391359 0.025789775 -0.03723431 -0.026650382
0.025150575 -0.09487906 -0.015346588 -0.108226 0.04376401 -0.026928065 0.007851806 0.053251706
0.030751582 -0.11297196 -0.06377971 0.038534157 -0.11028518 -0.00034526736 0.055708125 -0.02382555
0.029547803 -0.079947285 0.059095677 0.03360959 -0.03939609 0.0619284 0.05287917 0.00840139
0.0064528203 -0.097344875 -0.07529772 -0.05762156 0.06922004 -0.043387994 -0.025097242 -0.06439914
-0.08114856 0.06149916 0.012617081 -0.010731265 -0.027719539 -0.09524624 -0.022162363 -0.0111962855
-0.018520659 -0.10934575 -0.05317283 -0.07576443 -0.07898264 -0.08010413 -0.06676274 -0.053406592
0.057655245 -0.022796653 0.033912174 -0.10378112 0.03810344 -0.034443635 -0.08609653 0.0040243804
-0.080863446 0.050282784 0.05186884 -0.11520183 0.0015773475 -0.045013785 0.01296521 -0.04221344
0.058701865 -0.0027247802 -0.009562495 0.0025037234 0.049044818 -0.026678544 -0.032547746 -0.0921862
0.011096604 0.04246829 -0.099325284 -0.018330252 -0.091992505 0.057156257 -0.07201886 -0.102426924
0.069826335 -0.06205762 0.023559915 -0.052239645 -0.0813828 -0.09433788 -0.029597105 -0.07842722
0.054182988 -0.07142554 -0.06040825 -0.042370666 0.045843154 0.053451292 -0.09568499 0.041534863
0.038908146 -0.025045209 -0.071144596 0.035391904 -0.049537256 -0.077195674 -0.041130573 0.099092565
0.041931715 -0.033054825 0.052959375 -0.08323962 -0.03783941 -0.016003452 0.02850777 0.033344448
-0.08951 0.058440294 -0.029786477 0.02334957 -0.07579677 0.0063637868 -0.048905496 -0.061311577

net.2.bias f4 [128]
00000000: 6c57 d43d fc6e 573c 9e6d c53c 342d c33d
00000010: 981b f1bc 1995 dbbd 085b d5bd 3789 85bd
00000020: f5bc bc3b fbc3 c9bd 29e0 b33d 5c40 54bd
00000030: 1d14 723c 51ad 933e 612a 72bc b6fb 643e
00000040: 5b03 f6bb 0306 383e 2049 413b dcc0 5b3e
00000050: 38da 533c e456 473c ec9d 94bd adc6 d8bd
00000060: a661 d73d 5d7f eb3d a968 b4bb df4a 3f3d
00000070: 31bb 263e 8222 173e 2053 a93b dd28 bbbd
00000080: 86c3 46bd 0272 8b3e a65c b7bc 7a80 63bd
00000090: df39 80bd 5491 60bd 3296 a3bd 794e b23e
000000a0: 0e5e acbd f5ca 53bd 625a a73e 24d9 9a3c
000000b0: a5ca c7bc 1a7e 6cbd 50d2 8f3e f010 0dbb
000000c0: ab1a a23c 3e75 bf3e 071d 57ba e982 a73c
000000d0: ef1e 85bd 084f 94bd 5f42 babd f119 27bd
000000e0: ae32 e5bb 1e2d ddbd f720 57bd 9d6a 95bd
000000f0: bd26 2fbd 9eeb 663d 3ec9 43bd c65c 66bd
00000100: 0888 a7bc f0cd 8ebb 2436 633e 90d5 5c3b
00000110: 59ab 95bd 357f 713e 3e6a 20b9 cd11 93bd
00000120: 395e 21bd caec d73b 7d3c 0e3e 362f a53d
00000130: 4e51 6e3e cb8f c9bd aa00 52bd cf7d b53d
00000140: b150 223e 4f1c 053d f4bd b3bd b0a4 983e
00000150: e574 3b3d 6efb d1bd cc28 98bd eeff 783b
00000160: 8f12 f13d 7977 303d 10ec f8bc 3671 1d3d
00000170: 0c09 fcbc 689d b4bd 78ff febc 81f1 00bd
00000180: c67a 33bd db0b 9fbd d7b2 de3c 6dbf 8f3d
00000190: 1356 acbb 2c1a a0bd 42b0 0d3d 1e19 de3c
000001a0: 09fa 813c 87d8 b6bd 6e98 41bc 88fc e33e
000001b0: 8ea7 d13d 58e1 81bc 78ff 0b3d dd0c 15bd
000001c0: b908 78bd 50d8 5abd 6751 96bd 75ba 81bd
000001d0: d062 06bd 33aa 23bd 7167 503c 8aac 383c
000001e0: 7e73 b4bd ecd4 a1bd da33 9cbc 323b 673e
000001f0: 7976 e4bc 57b7 4abd 326a 97bd 4065 a1bd
0.10368237 0.013149019 0.024100121 0.09530106 -0.029432103 -0.107217975 -0.104177535 -0.06520312
0.00575983 -0.098518334 0.087829895 -0.05181919 0.014775303 0.28843167 -0.014780612 0.22361645
-0.007507724 0.17971043 0.0029493049 0.21460289 0.012930445 0.012166712 -0.07256684 -0.105847694
0.10516672 0.11498902 -0.0055056405 0.046702262 0.16282345 0.14759257 0.00516738 -0.091386534
-0.04852631 0.2723542 -0.022383045 -0.055542447 -0.06261038 -0.054826096 -0.07987632 0.34825495
-0.08416377 -0.051707227 0.32686144 0.018902369 -0.02438862 -0.057737447 0.28090143 -0.0021524988
0.019788107 0.37394136 -0.00082059245 0.020448165 -0.06500041 -0.072416365 -0.090946905 -0.040796224
-0.006994567 -0.10799621 -0.052521672 -0.072957255 -0.042761553 0.056377046 -0.04779934 -0.05624082
-0.020450607 -0.0043580458 0.22188622 0.003369663 -0.073080726 0.23583682 -0.00015298367 -0.071811296
-0.0393965 0.0065895068 0.13890262 0.080656454 0.23273203 -0.098418795 -0.051270165 0.08861887
0.15851094 0.0324977 -0.08776465 0.29813147 0.045765776 -0.102530345 -0.074296564 0.0037994343
0.11771118 0.043082688 -0.030386 0.038438044 -0.030766033 -0.08819085 -0.031127676 -0.031480316
-0.043818258 -0.07765933 0.027184887 0.070189334 -0.0052592843 -0.07817492 0.03459192 0.027111586
0.015866296 -0.08928018 -0.011816127 0.44528604 0.10237037 -0.015854523 0.03417918 -0.03638922
-0.060555194 -0.053428948 -0.07339745 -0.06334392 -0.03280908 -0.039957236 0.012719975 0.011271605
-0.08811091 -0.0790194 -0.019067694 0.22581175 -0.027888523 -0.049491253 -0.07393302 -0.0788064

net.4.weight f4 [9, 128]
00000000: 8c59 d5bd 860b 953d 6ef2 b5bb 9f37 89be
00000010: 95bb 853f 0e21 173d a1ba 8c3d c031 4a3c
00000020: a53f 29bd 71c3 9e3c dad0 97be ecc4 30bd
00000030: e023 cdbc 2a59 5bbe 41a9 6d3c d753 823f
00000040: 98ae f33c 66f5 a93e 08db 17bd d8c8 d03e
00000050: 5a52 52bd 0533 1c3b a6d1 7b3d 9e62 1a3d
00000060: 49d0 2a3f 5595 98be 811a 123e 3fbe cf3c
00000070: 28b5 083f 5b64 8cbe 00f7 263c 7a76 b73d
00000080: be2b 86bd dbd6 0f3f 15f1 d739 dcea 693d
00000090: 542f 8fbd 3080 0cbd d27b 82bc 3573 a4be
000000a0: 9eb0 98bd daf7 81bd 30c7 92be 9e20 2abd
000000b0: 1b1a 383d 6c99 bcbd ab6d 32be aca9 06be
000000c0: ae08 4fbe 0e47 863f 65a5 4f3c abe0 963d
000000d0: 27ae 9d3d d9c8 943c c192 773c c60f 97bd
000000e0: 87cd 83bd 4692 cc3c 8bc2 89bd 661d abbd
000000f0: 90ce 8abb 80cb fabb dab8 993c 8174 01bd
00000100: 8984 833d 7f7c 92bd 2a88 d43e 1e80 5a3d
00000110: d52a e73e 6129 b33e 71dc 41bd 8ccf eabc
00000120: f476 7c3c 41a4 80bd eace 2cbe 176b 553d
00000130: 6e1e 023f 940f 5a3d 7c2e 1dbd a7ec cdbd
00000140: 5d26 803e 0918 ac3d 0e56 84bd 249b 11be
00000150: f73b 14bd 9ad9 4b3d b94f a13d 30b7 dd3c
00000160: aaa4 4b3e 5477 6dbc dc9a 143d 1a7e 353e
00000170: 1df6 873d 5be0 903d 57ef cd3d c8ef c13d
00000180: ccb1 603d e05b b1bb d994 46bc afbe 80be
00000190: b3bb 5dbd da89 50bc 3360 fa3c 6e4f 99be
000001a0: d034 86bd c386 d03c ee74 51bd 1044 b1be
000001b0: ee97 a1bd 36fb 56bd 105c dd3b c9c7 c93e
000001c0: 8d3f b23d e0b4 5b3c 4a6f f439 66f1 283d
000001d0: 4559 383d c6df 613d 185a d63c 259f b13d
000001e0: 155a e9bc 349a dc3d e70a 88bd 37e8 c03e
000001f0: f998 81bd 203b c3bb da45 69bd 52e3 6b3d
00000200: d63b 43be f813 ed3b b25f b43c 1471 9abe
00000210: d7a4 bb3e fc7e cfbc e7c6 b13d d549 2a3d
00000220: db03 2b3c a1f3 58bb 9818 87be a47b ae3c
00000230: 2f96 843e 3570 80be ff57 b1bd b0ef b1be
00000240: 5f3c a6bd f80d ee3c a3f4 8fbc 8587 a33e
00000250: d597 673d 80cb 7bbd 8a9e 463d ad8b 493d
00000260: 2804 153f 83e1 debe d70b 153d 5465 87bd
00000270: 852c 8d3e f72d 8dbe 3039 bb3b dd20 063d
00000280: 609f e9bc 0bdb b63e 8a56 403d 7aea 9bbd
00000290: 0514 153c adb7 ffbb 9225 383d e50b 87be
000002a0: 60d5 a3bd f49f 383c 2582 b0be 33fe 263d
000002b0: b624 ebb9 5ec8 58be 3c0b 75be 94bc 8cbe
000002c0: 62db 72be 6855 e43d 8041 f83d b9b7 a83d
000002d0: 9a42 cc3b d00c ad3c 8aa7 143b 0a57 773d
000002e0: 6a0b 0fbd 5c22 9d3d 0be2 363c d8b8 59bc
000002f0: 28a8 713c f864 083c 4713 9b3c 89d7 bcbc
00000300: bbf6 273e ca3c 9cbd 4f07 d23e d521 71bd
00000310: c4a7 eabe 7a3b a43e 1971 943d 54b6 f33c
00000320: 34ab 92bc d06c c23c d5b8 533e 9517 513e
00000330: fc3e f53e 0f2a 0dbd 5c58 fb3c 43b9 863e
00000340: 382d 5d3f b863 1b3c 8110 3f3c 4eb4 a3be
00000350: 23e7 c83c b249 1bbd 5008 14bd 9017 16bc
00000360: ce66 1b3f 5098 96bc 1cd9 47bd ab42 2abe
00000370: 0418 ad3c 7ee0 6f3d 82a1 84bc 93cb d73c
00000380: 9c9d 33bb 2cd3 d33c 3514 86bc bf93 91bd
00000390: 594e db3c c981 2e3c 7e8c ea39 300e efbd
000003a0: 2b52 5ebd 048d 13bd 8aab 0c3d d2ef 87be
000003b0: 134f 24be 368a 00bd 40fd 51bd 9e9d 7a3f
000003c0: 7f84 7cbd 7853 94bd 5778 6fbd 18d4 143d
000003d0: 1117 45bd 42cf a3bd 5a10 5c3d 7008 10bd
000003e0: efba 32bd b043 d73d c068 62bc fc34 e93e
000003f0: 4bdf 73bd 20dd 0a3c bdb5 8b3d 9a4a 53bd
-0.1041747 0.072775885 -0.0055525815 -0.26800248 1.044787 0.036896758 0.06871534 0.012340963
-0.04132046 0.019380303 -0.2965153 -0.04315655 -0.02504152 -0.21420732 0.014505685 1.0181836
0.029746339 0.33195037 -0.03707412 0.40778232 -0.051348068 0.002383412 0.061479233 0.037691705
0.6672407 -0.2980143 0.14267923 0.025359271 0.5340142 -0.27420315 0.010190725 0.089581445
-0.06551312 0.5618722 0.00041187616 0.057108745 -0.06991449 -0.034301937 -0.015928183 -0.32119146
-0.07455562 -0.06346102 -0.28667593 -0.041535012 0.04494677 -0.092089504 -0.17424648 -0.13150662
-0.20218155 1.0490434 0.0126737105 0.07367071 0.076992325 0.018162178 0.015110672 -0.073760554
-0.064356856 0.024972092 -0.06726559 -0.08355217 -0.00423605 -0.0076536536 0.018764902 -0.031605247
0.064217634 -0.07152652 0.41510135 0.05334484 0.45149866 0.34992507 -0.04732937 -0.02866342
0.01540922 -0.06281329 -0.16875806 0.052104082 0.5082768 0.053237513 -0.03837441 -0.100549035
0.2502927 0.08403022 -0.06461726 -0.14219338 -0.03619 0.049768068 0.07876534 0.02706489
0.19887033 -0.014493782 0.036280498 0.17723885 0.06638739 0.070740424 0.10055416 0.09469563
0.05485706 -0.0054125637 -0.012120449 -0.2514548 -0.054134082 -0.012728179 0.03056345 -0.29943413
-0.06553042 0.025454884 -0.051136903 -0.3462224 -0.078903064 -0.052485667 0.0067553595 0.39410236
0.087035276 0.013409823 0.00046622223 0.04124584 0.04500701 0.055145048 0.026166007 0.086729325
-0.028485337 0.107715994 -0.066427045 0.37677166 -0.06328005 -0.005957976 -0.05695138 0.057589836
-0.19065794 0.0072350465 0.022018287 -0.30164397 0.366492 -0.025329106 0.08680516 0.041574318
0.010437931 -0.0033104199 -0.2638595 0.02129919 0.2589583 -0.25085607 -0.08659362 -0.3475318
-0.081169836 0.029059395 -0.017572707 0.3193933 0.056541283 -0.06147337 0.04849104 0.04920547
0.58209467 -0.43531427 0.036388244 -0.06611124 0.27573028 -0.2757413 0.0057136044 0.032746185
-0.028518379 0.35713992 0.04695753 -0.07613082 0.009099011 -0.0078038783 0.044957705 -0.26376262
-0.079996824 0.011268605 -0.34474292 0.040769767 -0.00044850045 -0.21170184 -0.23930067 -0.27487624
-0.237165 0.111491024 0.12121868 0.08238167 0.0062335255 0.021124274 0.002268287 0.06038574
-0.034922995 0.07672569 0.011162291 -0.013288699 0.014749564 0.008324854 0.01893009 -0.023051994
0.16402714 -0.07628782 0.410212 -0.058870155 -0.4583112 0.32076627 0.07248134 0.029750027
-0.017903902 0.023733526 0.20675977 0.20419152 0.47899616 -0.03446394 0.030681781 0.26313218
0.86397123 0.009484224 0.01166165 -0.319735 0.024524277 -0.03791208 -0.03614074 -0.009160891
0.6070374 -0.018383175 -0.048791036 -0.16626994 0.021129616 0.0585637 -0.016190294 0.026342189
-0.0027407175 0.02585753 -0.016367057 -0.071082585 0.026770758 0.01065106 0.00044736633 -0.11672628
-0.05427758 -0.036023155 0.03434328 -0.26550156 -0.1604579 -0.03138181 -0.05126691 0.97896755
-0.061649796 -0.07242483 -0.058464374 0.03633508 -0.0481177 -0.07998516 0.05372653 -0.035164297
-0.043635305 0.10510957 -0.01381892 0.45548236 -0.05953912 0.008475572 0.06821773 -0.051584817

net.4.bias f4 [9]
00000000: 4b27 4abe e8f5 85be d673 3fbe e0c1 cfbe
00000010: ace7 81be 3a55 ccbe f6eb 1ebe e89b 1ebe
00000020: 58ba 35be
-0.19741552 -0.26164174 -0.18696532 -0.40577602 -0.25372064 -0.39908773 -0.155197 -0.15489161
-0.17746866
