Reinforcement Learning/modelos/car_agent_1.pth (torch, 77381 bytes, 6 tensors)

net.0.weight f4 [128, 6]
-0.045221787 0.3343659 0.17254832 -0.39898783 0.20623367 -0.1100439 -0.1565297 -0.6676356
-0.28368938 -0.27031177 0.3221545 -0.12724468 -0.41786057 0.054339215 -0.14309375 0.28933823
-0.11930818 -0.12443388 -0.09391203 0.096391276 -0.49394378 -0.08757185 0.53480947 0.115781955
-0.23444512 0.12567055 -0.3879424 -0.34910518 0.083537325 0.30661607 0.08260004 -0.92279017
-0.1928427 -0.30956495 0.3142043 -0.02408083 -1.3294959 -1.5523846 -0.7467521 -1.8291218
0.03125816 1.525825 -1.144753 -1.8136783 -1.0867879 -0.18210605 0.52719957 0.061844774
-0.035161488 -0.75517476 -1.1791477 -0.48289815 0.26585242 0.52469796 -0.38332137 0.0010612591
0.10830593 -0.062994085 -0.28742445 0.17482777 -2.5325015 -1.2654177 -1.4233707 -2.0137894
0.03593857 0.1456424 -1.4860611 -0.9630611 -1.0537276 -0.86356837 0.12296606 0.97275954
-1.1340996 -0.6601449 -0.92418003 -0.35599557 0.115299866 0.45690933 0.33309865 -0.3042905
-1.6647477 -0.4772044 -0.090400994 1.1699159 -5.9430947 -6.5123763 -6.524781 -6.1739388
-5.1776996 -5.5201 0.21414262 -0.57584184 0.1689783 -1.9188666 0.20674227 -0.80865633
-0.26709822 -0.35619634 0.027585566 -0.17935601 0.1395387 0.09983379 0.19687459 -0.8263199
-0.8239268 0.069014505 0.078478634 1.2513969 -0.3413403 -1.2719914 -1.2170157 -0.55988264
0.07016517 -0.2769901 -0.17496766 -0.3456337 0.004893066 0.021843484 0.101309076 -0.54610676
-0.21407142 0.029219925 -0.28785494 -0.8205523 0.31778204 -0.07406768 0.53142893 -0.17119676
-1.0160364 -0.41889963 0.28789273 0.8380154 0.24626766 -1.2822698 -1.2954229 -0.23523603
0.36152822 0.84303635 -6.0385175 -5.9235864 -6.1819725 -5.2735453 -4.967969 -5.2086887
0.21303897 -0.100875326 -0.097535454 0.09724332 0.22238985 -1.3884864 -0.31401956 -0.3499969
0.3236938 -0.27116507 0.040614545 -0.2643888 0.18331248 -1.4567355 -1.3697996 -0.40559313
0.34359053 0.3141665 0.17270564 0.25427637 -0.07280742 -0.066704035 -0.49598175 1.275531
-0.073207155 0.07702992 0.36178383 -0.22252531 0.4163169 1.2339339 0.013971494 -0.024511874
0.7010919 -0.13862559 -1.0898515 0.98367506 0.18149981 -0.82979167 -0.25814322 0.06247229
-0.19895662 -0.39623055 -0.33330482 -0.40621117 -0.12496135 -0.12925085 0.09486818 0.32506084
-1.6558363 -1.422402 -1.0566617 -1.5150146 -0.21002708 1.1917378 0.27906302 -0.80281746
-0.28342798 -0.10827096 0.31671602 0.7945468 -1.5597737 -1.4972013 -0.8205863 -1.8258154
-0.17263308 1.0184951 -0.3254241 -0.060853153 -0.3891472 -0.32014775 0.058999866 0.0007315576
-0.88914394 -0.24975824 -0.67961186 -0.1446483 0.10441007 0.46718752 0.345694 -0.1741372
-0.32699776 0.041738868 0.17900926 -0.3474253 -1.3250432 -1.0603691 -0.9063119 0.007943659
0.4893219 -0.5702744 -0.348367 -0.9158977 -0.3116218 -0.39777383 0.45880988 -0.16812919
0.2538036 -0.12547651 -0.27200866 0.285654 -0.34221762 0.26587296 -0.30973244 -0.35378706
-1.052606 0.055971477 -0.2494908 -0.32472003 -0.35068688 -0.7480612 0.031595565 -0.1331511
00000000: 7b3a 39bd 0232 ab3e 82b0 303e 2248 ccbe
00000010: eb2e 533e b25e e1bd 5249 20be 2bea 2abf
00000020: bc3f 91be 4e66 8abe 6ff1 a43e 6e4c 02be
00000030: d2f1 d5be cc92 5e3d 2b87 12be 2424 943e
00000040: d957 f4bd 31d7 febd f354 c0bd ca68 c53d
00000050: 33e6 fcbe df58 b3bd 46e9 083f 171f ed3d
00000060: 6212 70be c8af 003e 63a0 c6be eabd b2be
00000070: 9e15 ab3d c8fc 9c3e 362a a93d fa3b 6cbf
00000080: 8f78 45be 4c7f 9ebe 63df a03e 2945 c5bc
00000090: ec2c aabf 8ab4 c6bf 252b 3fbf aa20 eabf
000000a0: 8e08 003d 3c4e c33f 4487 92bf 9c26 e8bf
000000b0: de1b 8bbf 027a 3abe 8df6 063f f250 7d3d
000000c0: 7e05 10bd 2253 41bf 50ee 96bf 6d3e f7be
000000d0: cf1d 883e 9b52 063f b342 c4be f219 8b3a
000000e0: 80cf dd3d 0b03 81bd 4c29 93be 0d06 333e
000000f0: 8114 22c0 35f9 a1bf 0331 b6bf ede1 00c0
00000100: 5234 133d 4823 153e 4037 bebf 2c8b 76bf
00000110: 8ce0 86bf d112 5dbf a1d5 fb3d c506 793f
00000120: 2d2a 91bf 42ff 28bf 1097 6cbf 0d45 b6be
00000130: 5622 ec3d 05f0 e93e e88b aa3e f7cb 9bbe
00000140: 7416 d5bf 2354 f4be 2824 b9bd cebf 953f
00000150: d52d bec0 6365 d0c0 02cb d0c0 e890 c5c0
00000160: b7af a5c0 a9a4 b0c0 3448 5b3e 5f6a 13bf
00000170: a608 2d3e 6c9d f5bf 3fb4 533e 1a04 4fbf
00000180: 19c1 88be 5e5f b6be 20fb e13c 1aa9 37be
00000190: 3ce3 0e3e a875 cc3d 7e99 493e b389 53bf
000001a0: deec 52bf 7a57 8d3d 68b9 a03d c62d a03f
000001b0: 28c4 aebe 9dd0 a2bf 2cc7 9bbf 7854 0fbf
000001c0: c2b2 8f3d a5d1 8dbe b92a 33be e6f6 b0be
000001d0: 0356 a03b 1bf1 b23c 227b cf3d a7cd 0bbf
000001e0: 8a35 5bbe a05e ef3c b961 93be b70f 52bf
000001f0: 54b4 a23e ccb0 97bd ba0b 083f 344e 2fbe
00000200: 7b0d 82bf 037a d6be ad66 933e 2d88 563f
00000210: 972d 7c3e 6b21 a4bf 6bd0 a5bf b7e1 70be
00000220: 3a1a b93e 3bd1 573f 893b c1c0 058e bdc0
00000230: b8d2 c5c0 e2c0 a8c0 9af9 9ec0 94ad a6c0
00000240: e326 5a3e b997 cebd abc0 c7bd 8127 c73d
00000250: 2aba 633e ecb9 b1bf 2cc7 a0be cb32 b3be
00000260: 32bb a53e 26d6 8abe 705b 263d f85d 87be
00000270: 44b6 3b3e 4f76 babf 9855 afbf e7a9 cfbe
00000280: 19eb af3e 6eda a03e bfd9 303e 8330 823e
00000290: 0e1c 95bd 209c 88bd 52f1 fdbe 9a44 a33f
000002a0: a2ed 95bd ddc1 9d3d bb3b b93e addd 63be
000002b0: 7d27 d53e 8cf1 9d3f b1e8 643c 20cd c8bc
000002c0: c27a 333f def3 0dbe 4180 8bbf 21d2 7b3f
000002d0: 16db 393e 3a6d 54bf 592b 84be f2e2 7f3d
000002e0: 49bb 4bbe bbde cabe eea6 aabe e9fa cfbe
000002f0: bceb ffbd 565a 04be 404a c23d 606e a63e
00000300: 72f2 d3bf 4511 b6bf b140 87bf 00ec c1bf
00000310: 5711 57be dd8a 983f 59e1 8e3e 7285 4dbf
00000320: 791d 91be 2abd ddbd 9a28 a23e 6b67 4b3f
00000330: aaa6 c7bf 4ba4 bfbf f211 52bf 52b4 e9bf
00000340: bac6 30be 0c5e 823f fd9d a6be 2841 79bd
00000350: 4d3e c7be 68ea a3be d8a9 713d 00c6 3f3a
00000360: f09e 63bf a0c0 7fbe 0bfb 2dbf af1e 14be
00000370: f2d4 d53d 3433 ef3e cefe b03e 0651 32be
00000380: 406c a7be 60f6 2a3d 344e 373e bbe1 b1be
00000390: 049b a9bf 2dba 87bf 0f04 68bf 1f26 023c
000003a0: 6688 fa3e 81fd 11bf 295d b2be 4678 6abf
000003b0: e48c 9fbe 03a9 cbbe 21e9 ea3e 0f2a 2cbe
000003c0: 8cf2 813e ea7c 00be b844 8bbe 3e41 923e
000003d0: 2637 afbe 8020 883e 4095 9ebe 9423 b5be
000003e0: cbbb 86bf 5942 653d 847a 7fbe b441 a6be
000003f0: 3b8d b3be f080 3fbf 5a6a 013d c358 08be

net.0.bias f4 [128]
-0.42206645 -0.1318353 -0.18258342 -0.12319996 -0.19995739 -0.24788798 0.05576521 0.012464055
0.28717208 0.34993953 0.29750994 -0.09831111 0.18809369 0.3821308 0.37916762 -0.1009852
-0.36350086 0.14273493 0.3514118 -0.11707316 -0.19581735 0.39834782 0.04155042 0.3546823
-0.12358339 -0.14133584 0.15085332 0.063585766 -0.06442181 -0.052369572 0.22171445 -0.31205902
0.2712971 0.26419613 0.3614127 -0.2871955 -0.023155745 -0.39760017 -0.25570148 -0.10437369
-0.3004983 0.63266546 -0.23748541 0.06628003 -0.32339102 -0.1279591 -0.08532822 0.10631607
0.08674139 0.08319069 -0.306013 0.16910936 -0.13432617 0.12558052 -0.38035375 -0.02739492
0.32740608 -0.023655165 -0.07851432 0.43267393 -0.24986778 -0.29760453 -0.14955449 -0.1909175
-0.38721877 -0.3497773 0.23831758 -0.1782463 -0.23936431 0.15565172 -0.0048228134 -0.40470266
0.32234332 -0.16920091 -0.36032102 -0.035809375 0.3351948 -0.0059125167 0.53412366 -0.20977387
0.12245238 -0.0650029 0.0181535 -0.054147746 -0.027500153 -0.053069126 0.14106981 0.40563497
0.14459872 -0.15539858 -0.34318215 -0.058329124 0.0765604 -0.22869962 -0.53094774 0.04566528
0.23075023 0.13596 -0.047039203 0.22336452 0.029784951 0.060065903 0.40870675 0.067206554
0.17082314 0.46843228 -0.08702111 -0.018155295 0.0004870345 0.22124405 0.078133404 0.15542394
-0.3647623 -0.20184635 0.12425305 -0.040788576 -0.31017813 -0.44417745 0.27369207 -0.03426817
0.31419623 -0.3184901 0.32271296 0.09446321 0.36274087 -0.33686447 0.42699218 -0.17824277
00000000: 1819 d8be d5ff 06be 26f7 3abe 4350 fcbd
00000010: a1c1 4cbe 59d6 7dbe 106a 643d 0936 4c3c
00000020: 3808 933e 462b b33e 3953 983e 5657 c9bd
00000030: a29b 403e a6a6 c33e 4222 c23e 54d1 cebd
00000040: c91c babe 1b29 123e 3fec b33e 0ec4 efbd
00000050: 5884 48be 3ff4 cb3e c630 2a3d eb98 b53e
00000060: 4a19 fdbd 58ba 10be 4b79 1a3e 4139 823d
00000070: 95ef 83bd 7a81 56bd 1d09 633e 33c6 9fbe
00000080: 74e7 8a3e b744 873e 160b b93e 4a0b 93be
00000090: 1eb1 bdbc 4092 cbbe 4eeb 82be e0c1 d5bd
000000a0: eada 99be 5df6 213f 602f 73be d3bd 873d
000000b0: 8293 a5be b607 03be 90c0 aebd 3dbc d93d
000000c0: 78a5 b13d e15f aa3d bcad 9cbe 012b 2d3e
000000d0: cd8c 09be 2e98 003e babd c2be 506b e0bc
000000e0: c5a1 a73e 7ac8 c1bc 1ecc a0bd 7087 dd3e
000000f0: 57dd 7fbe 9f5f 98be d024 19be e17f 43be
00000100: 8a41 c6be 0316 b3be 8609 743e 3386 36be
00000110: eb1b 75be 2a63 1f3e b108 9ebb 3035 cfbe
00000120: 2f0a a53e 0143 2dbe ff7b b8be daac 12bd
00000130: a79e ab3e c9bd c1bb 54bc 083f f6ce 56be
00000140: 50c8 fa3d 3e20 85bd a6b6 943c 07ca 5dbd
00000150: 0048 e1bc 035f 59bd 9b74 103e 63af cf3e
00000160: b011 143e ce20 1fbe 92b5 afbe 85ea 6ebd
00000170: b3cb 9c3d 3c30 6abe 31ec 07bf 840b 3b3d
00000180: ca49 6c3e 1939 0b3e 2eac 40bd abb9 643e
00000190: 92ff f33c aa07 763d 0342 d13e 97a3 893d
000001a0: 43ec 2e3e 5bd6 ef3e 2038 b2bd 6aba 94bc
000001b0: aa58 ff39 cd8d 623e 6804 a03d 7427 1f3e
000001c0: 20c2 babe cfb0 4ebe 6278 fe3d ec11 27bd
000001d0: abcf 9ebe 3a6b e3be 5e21 8c3e c85c 0cbd
000001e0: 54de a03e 2211 a3be a23a a53e ed75 c13d
000001f0: 2cb9 b93e 8079 acbe b89e da3e 4685 36be

net.2.weight f4 [128, 128]
-0.001871787 -0.10168416 0.091688916 -0.13115686 -0.09618738 0.07291247 0.7629337 -0.12277643
0.07606168 -0.13735306 0.5871132 0.29688132 -0.026217304 0.04386667 -1.7792176 0.9295275
-0.083820514 -0.13512108 -0.06710686 0.11770514 0.2639896 -0.031792462 -0.06120991 -1.3662171
0.21773271 0.07754598 0.08014859 -1.008493 -0.28636202 1.1957022 -0.17146394 -0.04762423
0.6321947 -0.15544446 0.60965234 0.075594656 -0.08983578 0.07390968 0.48484486 0.06367456
-0.044294998 -0.07787925 -0.1969444 -4.7458134 -0.017328858 -1.9430447 0.07994562 0.11428147
-0.046333894 0.29611602 0.0013331547 -0.022389952 0.014516086 -0.32022023 0.08909227 -0.45175546
-0.108003244 -0.14212638 -0.43743336 -0.0083398605 -0.49365512 0.63966143 -0.046098463 0.02057311
0.027617238 -0.014866867 0.7201841 0.011671677 0.09742681 0.02993466 -0.20078301 0.1140174
0.79108936 -0.34053263 -0.0077268556 -2.1382232 -0.04249476 -0.87296945 0.11269878 -0.0027214221
-0.23202278 -0.67422986 -0.985628 -0.2961092 0.04786261 -0.4823231 -0.24289899 -1.5755332
-0.3274457 -0.0013845989 0.06872276 -0.5667079 -0.2288666 0.52415305 -0.05024449 -0.058612783
-0.14116515 0.7002042 0.8100588 0.6550421 0.11686828 -0.2312334 -0.13181812 0.7340895
-0.023424987 0.2394302 0.026609413 -0.025912452 0.01540164 -0.16242541 0.36603862 -0.1136433
0.061821915 -0.030691039 -0.018098442 -0.37687457 0.05773721 1.2678897 0.01479096 -0.2262625
0.65027225 0.041390993 0.79298174 -0.10665416 0.5347221 0.055229597 -1.5414704 -0.20662819
-0.054140598 0.23164427 -0.018931964 0.30534533 0.083441615 0.120724864 -0.8614183 0.23616233
0.013857783 -0.40322742 -1.2413036 -0.5914504 -0.027820786 0.02706201 -0.17214143 -0.028459022
-0.0075986534 -0.011608513 -0.0029039516 0.015229178 -0.23908508 0.07921926 0.08687209 -0.004164408
0.04167446 0.071347065 0.06704306 0.4071895 0.109915026 -1.3358266 0.06737778 -0.08623528
-1.023637 0.023153855 -0.79188895 0.07605261 -0.033063345 -0.049336698 0.31966588 0.40213
-0.07736695 -0.07704679 0.09499211 0.48257074 -0.08266352 -0.26617816 -0.04485551 -0.17102315
0.30961987 -0.4340415 -0.044206522 0.06743943 -0.14447962 0.24999216 0.019201389 -0.17638065
0.030199677 0.25491896 0.15731984 0.10532238 0.024933143 -0.025041787 0.06547814 -0.010737635
0.038549967 0.037132755 -1.3265948 0.026830673 -0.0059703956 -0.4999651 -0.014636942 -0.3060345
-1.144878 -0.02904027 0.08089619 -0.10873511 0.20170498 0.35444856 -0.4124101 -0.09056653
0.02448832 0.24607982 0.07975356 0.3107725 0.06040431 0.03501291 -0.10114851 -0.098239765
0.33800438 -0.00890383 -0.06599363 -0.19106291 -0.6609679 0.30745837 0.1741169 0.078977376
0.21067794 -1.151262 -1.6827317 -1.1327177 -0.13145702 0.09985213 0.019631218 -1.3877977
-0.028538983 -0.5439555 0.064350806 -0.042955223 0.17139895 0.25373596 -0.0697164 0.025693044
0.04513157 -0.044646345 0.008464219 0.17154904 0.042660795 0.17912644 -0.058457658 -0.12991783
-0.327466 0.041308425 -1.1863372 0.18239395 -0.65638614 -0.063403524 -0.059794966 0.099977076
00000000: c056 f5ba c93f d0bd 66c7 bb3d fc4d 06be
00000010: e4fd c4bd 2253 953d 9f4f 433f 3572 fbbd
00000020: 3ac6 9b3d 48a6 0cbe 0d4d 163f d400 983e
00000030: acc5 d6bc 8aad 333d 67bd e3bf 84f5 6d3f
00000040: 17aa abbd 2e5d 0abe 526f 89bd 640f f13d
00000050: a529 873e d038 02bd 3eb7 7abd 34e0 aebf
00000060: 53f5 5e3e 6dd0 9e3d f224 a43d 4c16 81bf
00000070: 0b9e 92be c50c 993f 3e94 2fbe a011 43bd
00000080: 83d7 213f d52c 1fbe 2d12 1c3f 5fd1 9a3d
00000090: d2fb b7bd f55d 973d 963d f83e cf67 823d
000000a0: ac6e 35bd 287f 9fbd cbab 49be b4dd 97c0
000000b0: 40f5 8dbc b0b5 f8bf 87ba a33d 670c ea3d
000000c0: 9cc8 3dbd 859c 973e 40bd ae3a 226b b7bc
000000d0: e1d4 6d3c e8f3 a3be 0276 b63d 7e4c e7be
000000e0: ce30 ddbd 9489 11be 44f7 dfbe e9a3 08bc
000000f0: 5dc0 fcbe dac0 233f bed1 3cbd f088 a83c
00000100: 8c3d e23c 2994 73bc fc5d 383f 903a 3f3c
00000110: b587 c73d 8839 f53c 109a 4dbe f481 e93d
00000120: d584 4a3f 4b5a aebe 9031 fdbb a6d8 08c0
00000130: fc0e 2ebd ed7a 5fbf 9ece e63d e359 32bb
00000140: 6197 6dbe 549a 2cbf 1e52 7cbf a09b 97be
00000150: 960b 443d 0ef3 f6be 83ba 78be 12ab c9bf
00000160: f6a6 a7be 6e7b b5ba 85be 8c3d c513 11bf
00000170: 025c 6abe e52e 063f 2bcd 4dbd f513 70bd
00000180: 998d 10be 9540 333f 0360 4f3f d7b0 273f
00000190: a358 ef3d 73c8 6cbe 54fb 06be 4aed 3b3f
000001a0: c2e5 bfbc 312d 753e fcfb d93c 5a46 d4bc
000001b0: 2957 7c3c d952 26be 6a69 bb3e d2bd e8bd
000001c0: fa38 7d3d c66b fbbc 2f43 94bc b4f5 c0be
000001d0: da7d 6c3d 364a a23f c855 723c 5bb1 67be
000001e0: 3e78 263f 9a89 293d da00 4b3f 7f6d dabd
000001f0: 8ce3 083f 6e38 623d e74e c5bf 5796 53be
00000200: 88c2 5dbd 2834 6d3e 3517 9bbc 3956 9c3e
00000210: 70e3 aa3d 993e f73d e985 5cbf 8ad4 713e
00000220: c10b 633c d373 cebe 09e3 9ebf 4b69 17bf
00000230: 6be8 e3bc 26b1 dd3c d845 30be e522 e9bc
00000240: 20fe f8bb a231 3ebc 3950 3ebb cd83 793c
00000250: b8d2 74be b53d a23d ffe9 b13d 9675 88bb
00000260: d7b2 2a3d 691e 923d df4d 893d 247b d03e
00000270: 211b e13d 5efc aabf 5dfd 893d 1f9c b0bd
00000280: 8a06 83bf 27ad bd3c 3cb9 4abf 79c1 9b3d
00000290: 6e6d 07bd 4715 4abd 3fab a33e fce3 cd3e
000002a0: 9072 9ebd b5ca 9dbd 398b c23d 8313 f73e
000002b0: 7e4b a9bd 8148 88be 69ba 37bd b120 2fbe
000002c0: 7f86 9e3e b03a debe e611 35bd af1d 8a3d
000002d0: 77f2 13be f2fd 7f3e 3b4c 9d3c 219d 34be
000002e0: 5065 f73c bd84 823e 7418 213e 43b3 d73d
000002f0: 9740 cc3c 6f24 cdbc 6719 863d e8ec 2fbc
00000300: 92e6 1d3d 8418 183d dccd a9bf 00cc db3c
00000310: 4fa3 c3bb 6dfb ffbe c9cf 6fbc 8eb0 9cbe
00000320: 5d8b 92bf dce5 edbc e7ac a53d 83b0 debd
00000330: c08b 4e3e 487a b53e 6b27 d3be f27a b9bd
00000340: bb9b c83c 59fc 7b3e d655 a33d 931d 9f3e
00000350: 826a 773d b269 0f3d f326 cfbd ee31 c9bd
00000360: e90e ad3e 5fe1 11bc ab27 87bd ffa5 43be
00000370: 3135 29bf 2f6b 9d3e b34b 323e e4be a13d
00000380: f5bb 573e 8e5c 93bf c163 d7bf e5fc 90bf
00000390: ab9c 06be 467f cc3d a6d1 a03c 5ba3 b1bf
000003a0: 96ca e9bc ab40 0bbf 5bca 833d d1f1 2fbd
000003b0: 3583 2f3e aee9 813e 79c7 8ebd 387a d23c
000003c0: e2db 383d 16df 36bd 82ad 0a3c 8daa 2f3e
000003d0: 16bd 2e3d ec6c 373e 4c71 6fbd 2e09 05be
000003e0: a0a9 a7be 0633 293d e6d9 97bf 7bc5 3a3e
000003f0: ec08 28bf b5d9 81bd 91eb 74bd c8c0 cc3d

net.2.bias f4 [128]
0.051372264 -0.09660309 -0.11810163 -0.03802199 -0.06508045 0.008980468 0.22900303 -0.07845
0.11431157 0.07322092 0.04243026 -0.09290906 0.034792814 0.22958148 -0.113381706 0.18758889
0.11162286 0.17662327 0.008929631 -0.08422831 0.006655534 -0.3132473 -0.124500796 0.16780093
0.034575213 -0.08604433 -0.116173565 0.028928649 0.13173899 -0.07354401 -0.06374695 -0.11454668
0.033275194 0.02834198 0.035718013 0.054787952 -0.087475665 -0.078287795 -0.052678388 -0.07677882
0.018853458 -0.028076606 0.037598725 0.21854624 -0.09623275 -0.061631933 0.029582176 -0.018925838
-0.08344866 0.01848522 -0.070638694 -0.069512665 0.045880783 -0.11368109 -0.004865566 -0.10900816
-0.035885755 0.13315332 -0.052307848 -0.053524416 -0.09813863 0.24729478 -0.06525842 -0.11030907
-0.035928793 0.031169148 0.010408402 -0.015108574 -0.015932972 0.2962771 0.06736469 -0.03098638
0.036219914 -0.029181127 -0.0012333265 -0.09452997 0.025193732 -0.10178429 0.24920198 -0.094413765
0.031520452 0.009394894 -0.008696944 -0.033336494 0.30720735 -0.06402531 0.26866794 0.35422915
-0.22351398 -0.00013849053 -0.061788395 -0.07145156 -0.030137863 0.09228523 -0.027111595 -0.014491002
-0.08647109 -0.032611057 0.0018979113 0.18025263 0.016500218 -0.061174244 -0.024376692 -0.13027054
0.22874582 -0.03551419 -0.045184728 -0.025030592 0.21833853 -0.059426587 -0.014354664 -0.101649046
0.0068337335 -0.09510423 -0.025311204 -0.07876177 -0.10599784 -0.06553826 -0.06983358 0.009759088
-0.20491001 -0.021634702 -0.0087451935 -0.008339447 -0.018153582 -0.058371957 0.019346127 -0.03582076
00000000: b96b 523d d7d7 c5bd 44df f1bd f2bc 1bbd
00000010: e648 85bd d022 133c c57f 6a3e 65aa a0bd
00000020: 2f1c ea3d daf4 953d 5acb 2d3d 1b47 bebd
00000030: e982 0e3d 6817 6b3e ab34 e8bd 4d17 403e
00000040: 879a e43d bbdc 343e 964d 123c e47f acbd
00000050: aa16 da3b f361 a0be 46fa febd 02d4 2b3e
00000060: bd9e 0d3d 0238 b0bd 68ec edbd c6fb ec3c
00000070: 96e6 063e 3e9e 96bd c38d 82bd 7397 eabd
00000080: 924b 083d 712d e83c 0d4d 123d 5569 603d
00000090: 7126 b3bd 5a55 a0bd 4bc5 57bd 373e 9dbd
000000a0: 9172 9a3c e900 e6bc 1f01 1a3d 96ca 5f3e
000000b0: ad15 c5bd c471 7cbd 5256 f23c 5c0a 9bbc
000000c0: 22e7 aabd 516e 973c 05ab 90bd a85c 8ebd
000000d0: 7ded 3b3d a2d1 e8bd 536f 9fbb ac3f dfbd
000000e0: f1fc 12bd 5859 083e c140 56bd 6b3c 5bbd
000000f0: e8fc c8bd d83a 7d3e 35a6 85bd b9e9 e1bd
00000100: 122a 13bd 7156 ff3c 0188 2a3c f489 77bc
00000110: dd85 82bc a2b1 973e 80f6 893d 26d7 fdbc
00000120: 555b 143d 420d efbc 92a7 a1ba ee98 c1bd
00000130: 1663 ce3c 4874 d0bd ce2e 7f3e 015c c1bd
00000140: 971b 013d 0bed 193c a17d 0ebc d98b 08bd
00000150: 484a 9d3e b41f 83bd d88e 893e 865d b53e
00000160: d9e0 64be c537 11b9 d415 7dbd 3255 92bd
00000170: aee3 f6bc 0a00 bd3d 2319 debc ab6b 6dbc
00000180: c117 b1bd 2c93 05bd 56c3 f83a 2594 383e
00000190: 772b 873c d891 7abd a1b1 c7bc a465 05be
000001a0: 583c 6a3e 5477 11bd 9f13 39bd f50c cdbc
000001b0: 2394 5f3e 4b69 73bd d32f 6bbc 602d d0bd
000001c0: 83ed df3b 02c6 c2bd 7159 cfbc da4d a1bd
000001d0: 6515 d9bd ec38 86bd e804 8fbd 95e4 1f3c
000001e0: eed3 51be 423b b1bc 0048 0fbc 2da2 08bc
000001f0: d2b6 94bc 6f17 6fbd c57b 9e3c cab8 12bd

net.4.weight f4 [9, 128]
-0.83104694 -0.03821833 -0.00034178054 -0.03292247 -0.011346901 -0.019812608 -0.3258222 0.009761475
0.52202284 0.50921416 0.17685743 -0.01565053 -0.072757505 -0.713767 0.004846348 -0.36987793
-0.02224979 0.85323507 -0.02846508 -0.10363701 0.055713676 0.88680005 0.011244054 0.0807819
-0.068064645 0.07612672 -0.14604193 0.59537697 0.3697669 0.115218915 0.016924813 -0.068609506
-0.039595664 -0.027116619 -0.048082385 0.6159021 0.024340868 -0.0038076413 0.011377826 0.080706075
-0.3968014 -0.0063989013 0.280269 -0.37918663 -0.07564743 -0.050239053 0.02802368 -0.12580916
0.050109524 0.0890497 -0.014067691 -0.016962335 -0.066306435 0.19256347 0.037896857 -0.013888782
0.034326553 -0.1033323 -0.047399554 0.0293078 -0.06584358 -0.4000169 -0.02642522 0.010866868
-0.04825212 0.31973466 -0.0015416637 -0.043025576 0.044130154 -0.38659883 0.47034362 0.06636987
0.07253192 0.02250664 -0.0777355 -0.028526459 -0.016625734 0.06106744 -0.28715813 0.022695273
0.08714725 -0.14823838 -0.00089238194 -0.08962886 -0.29214305 -0.12153826 -0.3248489 -0.35797906
-0.14410594 0.015572081 -0.013675064 -0.044259053 -0.015060552 0.22442524 0.03349913 0.08007326
-0.18259944 -0.11434132 0.043790005 -0.2990761 -0.019465348 0.017117504 0.11689817 0.42346853
-0.38763362 -0.08121961 -0.03041193 0.042481504 0.14725791 0.08728186 0.56449765 0.0021620616
0.012046672 -0.08322874 -0.07789184 0.019188315 0.081416674 -0.02200991 -0.057318486 0.028403522
-0.1549446 -0.019536441 0.056907006 0.042789746 0.024235427 -0.050289202 -0.07355756 -0.060325224
-0.5630896 0.320275 0.014644495 0.060980227 -0.021950722 -0.08286782 -0.2741986 -0.08643652
0.24718197 0.6726349 0.72353554 0.13029328 0.0040769544 -1.1093011 0.021821376 -0.20154
0.7230463 0.0609389 0.053436644 -0.018302543 -0.001677747 0.6369512 0.05661115 0.61069816
0.071046345 -0.047568165 -0.048972115 0.62740326 0.6129586 0.004846339 -0.07853396 0.049825627
0.084751725 -0.046136975 0.011329007 0.36409354 0.011015005 0.11345232 0.027334318 -0.06589325
0.08256341 -0.015860409 -0.0065260436 -0.4984646 0.03577219 0.030799948 -0.06766008 -0.1792231
0.009543852 -0.047878515 0.11654747 0.010826185 -0.039290674 0.55960625 -0.031216327 -0.10540009
0.045951877 0.54076695 0.013555869 -0.018316481 0.032061186 -0.34158537 -0.028168812 -0.0020305382
0.03169069 -0.1356992 -0.014502424 -0.013142015 0.08798736 -0.37573478 0.22037993 0.074978344
-0.008280157 0.12023907 0.004748009 -0.10011722 0.10555217 -0.015238867 -0.30530953 -0.038005404
0.09855621 -0.044332486 0.011455777 0.0011189332 -0.38712195 0.0045766016 -0.35468766 -0.26199165
0.029596277 -0.1076451 0.06733651 -0.03873453 -0.058619812 -0.16248977 0.06919103 -0.04374703
0.10841595 0.051276978 -0.0046996325 -0.37325472 -0.05203612 -0.048563637 0.029771294 0.42121392
-0.25307652 0.07488065 -0.078092515 -0.02006025 0.65686005 0.03825981 0.28303072 -0.02547799
0.059498437 0.08791541 0.046227723 0.0403941 0.077701606 -0.046452075 -0.08698396 0.01393369
0.29683018 -0.19345286 0.08721901 0.005211521 0.046119563 -0.058343932 0.0012563581 0.06567459
00000000: 7ebf 54bf d38a 1cbd 0231 b3b9 b6d9 06bd
00000010: 5ae8 39bc 0d4e a2bc 2bd2 a6be 98ee 1f3c
00000020: 4aa3 053f dc5b 023f 1d1a 353e 8a35 80bc
00000030: e301 95bd 6fb9 36bf 1dce 9e3b a460 bdbe
00000040: 3145 b6bc 9d6d 5a3f 992f e9bc a43f d4bd
00000050: 0634 643d 5405 633f fb38 383c fb70 a53d
00000060: 7a65 8bbd 53e8 9b3d 048c 15be a06a 183f
00000070: 1652 bd3e e5f7 eb3d e8a5 8a3c 2483 8cbd
00000080: 102f 22bd ac23 debc 09f2 44bd c3ab 1d3f
00000090: 8066 c73c 9f89 79bb 106a 3a3c 3a49 a53d
000000a0: 8e29 cbbe e0ad d1bb 6b7f 8f3e c024 c2be
000000b0: 0aed 9abd 77c7 4dbd eb91 e53c 1ed4 00be
000000c0: a53f 4d3d b05f b63d 2c7c 66bc 98f4 8abc
000000d0: abcb 87bd 5c2f 453e bc39 1b3d c68d 63bc
000000e0: 009a 0c3d e39f d3bd 0926 42bd e916 f03c
000000f0: 00d9 86bd 04cf ccbe b479 d8bc f30a 323c
00000100: 04a4 45bd 43b4 a33e a611 caba 963b 30bd
00000110: d2c1 343d 48f0 c5be e1d0 f03e edec 873d
00000120: 9e8b 943d d85f b83c ca33 9fbd 52b0 e9bc
00000130: b132 88bc da21 7a3d 6406 93be 70eb b93c
00000140: 427a b23d cdcb 17be bdee 69ba 568f b7bd
00000150: c693 95be 0de9 f8bd 9852 a6be 0849 b7be
00000160: 8290 13be 0b22 7f3c 600d 60bc fb48 35bd
00000170: 89c0 76bc bbcf 653e 6236 093d 73fd a33d
00000180: 59fb 3abe c82b eabd 265d 333d 8120 99be
00000190: cb75 9fbc 023a 8c3c 4f68 ef3d ded0 d83e
000001a0: ea77 c6be 7856 a6bd 7122 f9bc 1601 2e3d
000001b0: c7ca 163e d5c0 b23d eb82 103f 60b1 0d3b
000001c0: 685f 453c d473 aabd c285 9fbd d030 9d3c
000001d0: c9bd a63d 204e b4bc cac6 6abd 81ae e83c
000001e0: cca9 1ebe e30a a0bc 5217 693d 4d44 2f3d
000001f0: 6089 c63c 0dfc 4dbd 59a5 96bd 9517 77bd
00000200: a426 10bf 16fb a33e 77ef 6f3c 67c6 793d
00000210: 00d2 b3bc 9bb6 a9bd c263 8cbe a105 b1bd
00000220: 451d 7d3e cd31 2c3f a039 393f 9a6b 053e
00000230: f997 853b 94fd 8dbf bec2 b23c 8060 4ebe
00000240: 9019 393f 119b 793d 62e0 5a3d 37ef 95bc
00000250: d9e7 dbba 3c0f 233f 18e1 673d b756 1c3f
00000260: bf80 913d d6d6 42bd fc96 48bd 809d 203f
00000270: dbea 1c3f 0ace 9e3b 6ad6 a0bd f515 4c3d
00000280: 5092 ad3d 20fa 3cbd 4d9d 393c 786a ba3e
00000290: 4878 343c b159 e83d 38ec df3c 0af3 86bd
000002a0: 0117 a93d b0ed 81bc 6cd8 d5bb c136 ffbe
000002b0: dc85 123d 2c50 fc3c 5e91 8abd 4386 37be
000002c0: d15d 1c3c 431c 44bd 71b0 ee3d 5060 313c
000002d0: 42ef 20bd 5b42 0f3f 62b9 ffbc 01dc d7bd
000002e0: 0938 3c3d b46f 0a3f 7019 5e3c 720c 96bc
000002f0: 9752 033d 47e4 aebe 48c2 e6bc c712 05bb
00000300: 19ce 013d bbf4 0abe 939b 6dbc 9b51 57bc
00000310: b832 b43d 4f60 c0be 47ab 613e 3f8e 993d
00000320: 7fa9 07bc e73f f63d 3095 9b3b 420a cdbd
00000330: bc2b d83d 71ac 79bc 8851 9cbe 8eab 1bbd
00000340: d7d7 c93d fb95 35bd 03b1 3b3c 2ba9 923a
00000350: d934 c6be 51f7 953b 9f99 b5be c523 86be
00000360: e473 f23c 0975 dcbd b9e7 893d 19a8 1ebd
00000370: 541b 70bd b863 26be 07b4 8d3d 1630 33bd
00000380: 2e09 de3d cf07 523d 60ff 99bb 3e1b bfbe
00000390: d423 55bd aaea 46bd eee2 f33c 5aa9 d73e
000003a0: 3f93 81be 075b 993d f8ee 9fbd 6555 a4bc
000003b0: fb27 283f 52b6 1c3d 67e9 903e 38b7 d0bc
000003c0: a2b4 733d ff0c b43d 4859 3d3d 4974 253d
000003d0: 0522 9f3d 8844 3ebd a524 b2bd 224a 643c
000003e0: 20fa 973e 8218 46be e19f b23d 68c5 aa3b
000003f0: dee7 3c3d 0cfa 6ebd 62ac a43a 6680 863d

net.4.bias f4 [9]
-0.03417395 -0.1140933 0.038195282 0.109975696 0.125219 -0.08004608 0.21543661 0.18304667
-0.001017561
00000000: fcf9 0bbd c0a9 e9bd a872 1c3d f03a e13d
00000010: 6939 003e 33ef a3bd 6a9b 5c3e 9670 3b3e
00000020: ae5f 85ba
