Reinforcement Learning/modelos/car_agent_3.pth (torch, 77381 bytes, 6 tensors)

net.0.weight f4 [128, 6]
00000000: 5d56 e53f 823e 893f b0a1 ad3f 085e 603f
00000010: 8851 ccbd c2e0 4d3f f0ab bbbd 54bf 043e
00000020: 1026 e73d d824 acbe 76f6 a7be db60 d0be
00000030: 494a 37bf f34e d2be 894a f2be 154f f2bf
00000040: 795c 22bf 8689 ae3c f8d7 1ebe 703f e03c
00000050: 7bab cfbe 1206 14be f09c cf3c cf88 a4be
00000060: 9d94 ebbf de1d 02c0 a506 ccbf 5e89 b6bf
00000070: fd1e dbbc 2586 733f 9d7d f1bc 9884 80be
00000080: 598c a43d 46f4 9c3e d6e9 80be ee7e e03d
00000090: 38ca 5ebd 8d90 a2be 5000 b63d 98cb 67bd
000000a0: d474 c0be a014 b33c 57ec 4bc0 799a 63c0
000000b0: 0ebe bfbf 025f 643e f893 4a3e 4507 77c0
000000c0: e0d8 8d3d deb3 c3be 9806 f2bd 34fe 653e
000000d0: 8eee 14be e040 35bd 0a21 16be e37a c63e
000000e0: c60c 3b3f 5c72 fe3e 8b83 d8be 7076 843f
000000f0: 5bc1 cebf 0cec e1bf 1551 9cbf 1a4a b6bf
00000100: 200d 053b 381e 7e3f 6878 5a3e f480 95be
00000110: f88d 45bd 15b3 24be dae5 0abe 032c babe
00000120: d858 26c0 9534 34c0 3a25 fbbf eaf5 bdbd
00000130: 1dda e43e 0b95 73c0 e002 c23e c217 8e3e
00000140: 63fa 62c0 b355 4ec0 6522 1cbe aa9b 393f
00000150: 3c82 b7bf fc5b 89bf 8b19 e4bf ce83 96bd
00000160: 84ba 9b3d 9d85 543f 9ee4 a3be b760 89be
00000170: 957d a23e a27f 82be 1557 1a3e 7298 923e
00000180: 84bc 883c b62b 87bf 2f63 0fbf 35ce babf
00000190: a229 f1be f6aa 513f 1866 273e b3bd 7ebe
000001a0: 90b7 0a3e 945b 43be 8089 193e 4009 373c
000001b0: 2cfe b63c 797e 433d 2ace ffbf 507c 49bf
000001c0: afe5 26bf 5442 753f c70a eebf e8cc febf
000001d0: 40dd 02c0 bd19 8b3e fd7a a4be 2ef5 853f
000001e0: 2cf6 eb3e 6bec 583e 58d1 c13e bfa6 d43f
000001f0: 8bc9 723e b173 ad3f 8e49 cdbf d97c 98bf
00000200: 8528 8dbf e85e 0ec0 cacc 1bbf bfdc 4d3e
00000210: 9e55 90bf e150 a3bf 4d52 3dbf 8a83 e7bf
00000220: 2c3a bebe 3822 5f3f 9566 1bc0 bd9c 11c0
00000230: 15c6 2bc0 fa3d b5bd 4f4d a63e 8797 4a3e
00000240: 186f 7cbf 44f6 4bbf 75c7 e0bf b66e cb3e
00000250: c014 3abe ff89 293f 7650 ba3e 0720 533e
00000260: ecfb 77be 1794 ebbd 715d 83bb 0e19 d73f
00000270: b243 0940 36dc 2440 75d2 cb3f 5b81 503e
00000280: 0569 063f af8a 5dbf 5056 b2be eb30 8cbe
00000290: dc7d 6f3e e7a1 b9be fcff 1d3e 4495 60be
000002a0: 3b23 95be 1cea 90be 824d aabe 52f7 533e
000002b0: 7db7 893e 3bc6 cbbd 8c93 963e be68 d1be
000002c0: 4dc5 d83b e71a 3dbf 18c6 cc3e 3faa 373f
000002d0: dea3 f53d 24fa 58bd 2908 0d3c 743e b5be
000002e0: 9841 5b3e fae4 413f 3c56 3fbf abb4 a5be
000002f0: 24ce 5abf 58f0 14c0 5145 ad3d 4afb ea3f
00000300: ad14 96be 1e38 ca3e c42e 913d 01f3 46be
00000310: 7c28 1b3e 14de 5ebe 5c4e 14c0 96a8 12c0
00000320: 973b 0cc0 a919 af3d c3fa 9e3e 74b2 883e
00000330: 0d46 b5bf fcd4 fdbe b1af ecbf a571 4a3f
00000340: bb70 173e 3715 4b3d 43be 43be 3abc 89be
00000350: f04a 0a3f bb01 993f b424 1e3d ff86 03bf
00000360: 3a11 21be d36b 203b e171 fbbe ed4d fe3e
00000370: d912 d33e 2d9b 80be 7621 09be 264c 153e
00000380: fd46 9fbe ade0 76be 5b81 b33e 87fa d63d
00000390: 10f8 343e c02e cabc 4002 adbd 3888 7cbd
000003a0: 62e2 b6be c87f 8dbe 3b23 99be f0cb f23c
000003b0: 5461 2c3e 2121 8cbe 1a05 8c3e 31ee 51be
000003c0: 7e7c 3e3f d2a0 523f 7427 773f 76ff 643e
000003d0: 5561 993e 43cc 3b3f 3350 133e 9c81 6a3e
000003e0: e0fb 05be ee75 66bd 4a10 e9be 59c2 193f
000003f0: a391 c93e c191 ef3e 643a 64c0 1f2d 4ec0
1.7916981 1.0722201 1.3564968 0.8764348 -0.09976488 0.8042108 -0.09163654 0.12963611
0.11286557 -0.3362186 -0.32805222 -0.40698895 -0.71597725 -0.41075858 -0.4732249 -1.8930384
-0.6342235 0.02130581 -0.15512073 0.027374 -0.40560517 -0.1445544 0.025343388 -0.32135627
-1.8404728 -2.033073 -1.5939528 -1.4260671 -0.026748175 0.95126563 -0.029478842 -0.2510116
0.08034582 0.30655116 -0.25178403 0.1096171 -0.05439207 -0.31750908 0.08886778 -0.056590647
-0.37589133 0.02186042 -3.1863 -3.5563033 -1.4979875 0.22301868 0.19783008 -3.8598187
0.06926131 -0.38223165 -0.11817664 0.22460252 -0.14544126 -0.044251323 -0.14661041 0.3876563
0.73066366 0.49696624 -0.4228786 1.0348644 -1.6152757 -1.7650161 -1.2212244 -1.4241364
0.0020302013 0.9926486 0.21334994 -0.29199946 -0.048231095 -0.1608394 -0.13564244 -0.36361703
-2.5991726 -2.8157094 -1.9620736 -0.0927542 0.44697657 -3.8059719 0.37892818 0.277525
-3.5465324 -3.2239807 -0.15247495 0.7250315 -1.4336619 -1.0731196 -1.7820295 -0.073493585
0.076039344 0.8301638 -0.3201036 -0.268316 0.31736436 -0.25488 0.15072282 0.28631932
0.016691454 -1.0560215 -0.5601072 -1.4594179 -0.47102076 0.8190149 0.1634754 -0.24877052
0.13546586 -0.19077903 0.14993858 0.011171639 0.022337995 0.047728036 -1.9984791 -0.7870531
-0.6519422 0.95804334 -1.8597039 -1.9906282 -2.044754 0.27168074 -0.32125083 1.0465448
0.46086252 0.21183936 0.3785503 1.6613387 0.23709695 1.3550931 -1.6038072 -1.19131
-1.102799 -2.2245426 -0.6085936 0.20103739 -1.1276128 -1.2759057 -0.73953706 -1.8087018
-0.37153757 0.8716159 -2.428136 -2.2751915 -2.683965 -0.08849712 0.32480857 0.19784366
-0.98607016 -0.79672647 -1.756087 0.39732903 -0.18171978 0.6622619 0.36389512 0.20617686
-0.24217194 -0.11502855 -0.004008942 1.6804521 2.1447568 2.5759406 1.5923601 0.20361845
0.52504 -0.8653974 -0.34831476 -0.2738107 0.23387855 -0.36256334 0.15429682 -0.2193194
-0.2912844 -0.2830361 -0.3326226 0.20699814 0.26897803 -0.09949919 0.29409444 -0.40900224
0.006615317 -0.73869175 0.39994884 0.7174415 0.11994146 -0.052972928 0.008607903 -0.3539921
0.21411741 0.75740016 -0.7474096 -0.323644 -0.85470796 -2.3271694 0.08460487 1.8357937
-0.2931265 0.3949594 0.07088998 -0.19428636 0.15152162 -0.21764404 -2.3172827 -2.2915397
-2.191137 0.08549816 0.3105069 0.2669865 -1.4162003 -0.49576557 -1.8491117 0.7907966
0.14789097 0.04958078 -0.19115548 -0.26901418 0.54020596 1.1953653 0.03860922 -0.5137786
-0.15729228 0.002447833 -0.4911032 0.49668828 0.41225317 -0.2511839 -0.1339167 0.1457983
-0.31108847 -0.24109145 0.35059628 0.10497003 0.17672753 -0.024680495 -0.08447695 -0.061653346
-0.3571959 -0.27636552 -0.2990969 0.02963826 0.16834003 -0.27369025 0.27347642 -0.20501019
0.7440871 0.8227664 0.96544576 0.22363076 0.2995707 0.73358554 0.14386062 0.22901005
-0.13084364 -0.05626481 -0.4552024 0.60062176 0.39368924 0.4679089 -3.566064 -3.221504

net.0.bias f4 [128]
00000000: 2efa 07bd 7023 b1bd 9140 413e 64ab c7bd
00000010: 7182 5d3e edfb 7c3e 98ba 56bd 12c6 b43d
00000020: f0dc 57be 64f9 14be a28e 233e e765 c7be
00000030: 2d9f 2f3d b79d 853b 5d88 683d aa22 9ebe
00000040: da46 503e 85a3 aabe 53ec 843e 7726 983e
00000050: c72e efbd c009 983e b208 073e 64ee eabd
00000060: f3bb 073e c88e 2abb a7ee 16be 2887 c6be
00000070: 6fc3 ed3e c42e 8dbe 908c 7a3e 08a3 b93c
00000080: 8254 b8be 2fb9 43be 451f 2cbe 1bd5 fabd
00000090: ecbd a7bd 9515 c9be 3498 55be 2e9d 97be
000000a0: 1a67 c5bd 643f 02bf 08e1 f33d 0d02 5cbe
000000b0: f3a5 263c 3b1a ccbe 330c 48be a465 e8bd
000000c0: 5ffd 18be ab7c b9be 04b1 043f dcf7 a9be
000000d0: e485 a63e 55f4 683d 9061 5abe 1529 563e
000000e0: 2abb 06be 1cc4 26bd bc3d 26be bb11 ca3d
000000f0: 6dc9 bf3d 38ba 18be 7a4f 66be 8616 833e
00000100: 6ebf 333d 6532 24be 89cc 7cbd 7586 313b
00000110: 73b0 bbbe 6725 083f 0249 7cbe 8220 763d
00000120: 64de 023e e17c 1cbd 32bc 60bc a6f1 97bb
00000130: b5a5 9b3d d662 593d 5f52 4d3d d8e4 b03e
00000140: 6159 39be 120f 0c3f df65 a23e 79d0 25be
00000150: 950b 8b3e 4796 733d aede 1bbd 31e1 88bd
00000160: 83ce ae3e c60e 153d cf50 753d a427 91bc
00000170: 5b9c 393e c2ae 563b b258 7a3e 8935 55be
00000180: 47e7 93be b262 da3e bf6d 2abe 035b c5be
00000190: 48f7 cb3d a1f1 a63e 40f1 acbc 8c4a 043e
000001a0: 6ca0 f6bd 3bac 363c 4240 143e 6239 de3e
000001b0: fca2 48bd a717 ca3e abee 813d be6d 803e
000001c0: b894 34bd 1d32 8d3e ecf1 cb3b c90d c7bc
000001d0: 14e0 15bd 65f9 cbbe f0b3 903e e084 8bbe
000001e0: 62ec 29bd 96e4 a63e da70 7ebe 653f 9abd
000001f0: 6998 4e3e 61fc f6bd a867 883e 5876 06be
-0.033197574 -0.08649337 0.18872286 -0.09749487 0.2163179 0.24705477 -0.052424043 0.088268414
-0.21080375 -0.1454826 0.15972379 -0.38944933 0.04287641 0.004077639 0.05677067 -0.30885822
0.20339528 -0.3332788 0.2596155 0.29716846 -0.11678844 0.2969494 0.13186911 -0.11471251
0.1325529 -0.0026025046 -0.14739476 -0.3877499 0.46438166 -0.27574742 0.24467683 0.022660747
-0.36001974 -0.1911361 -0.16808803 -0.12247678 -0.081905216 -0.39274278 -0.20858842 -0.29612106
-0.09638806 -0.50877976 0.11908156 -0.21485157 0.010171401 -0.39863762 -0.19535904 -0.113475114
-0.14940403 -0.36227927 0.51832604 -0.33196914 0.32524025 0.05687364 -0.2132628 0.20914109
-0.13157335 -0.04071437 -0.16234487 0.09866663 0.09364591 -0.14914787 -0.22491255 0.25603122
0.043883733 -0.16034849 -0.061718497 0.00270882 -0.36658058 0.5318207 -0.24637225 0.060089596
0.12780148 -0.03820503 -0.013716744 -0.004636961 0.075999655 0.053072773 0.050127383 0.34549594
-0.18100502 0.54710495 0.31718346 -0.16192807 0.27157274 0.059469488 -0.03805416 -0.06683577
0.3414193 0.036391042 0.05989152 -0.017719097 0.18126051 0.0032757972 0.24447897 -0.20821203
-0.28887388 0.42653424 -0.16643427 -0.38546 0.099592745 0.32606223 -0.02111113 0.12919062
-0.12042317 0.011149461 0.14477637 0.43403155 -0.04898356 0.3947117 0.063443504 0.25083727
-0.04408714 0.27577296 0.0062239077 -0.024298565 -0.03659065 -0.3983871 0.2826228 -0.27249813
-0.041485198 0.32596272 -0.24847737 -0.07531623 0.20175327 -0.12059856 0.26641583 -0.13131082

net.2.weight f4 [128, 128]
00000000: b758 5cbd 6076 023b a10c 98bd fddd 39bd
00000010: a594 6b3c fac0 b6bd 64a8 9d3c 79f0 dbbc
00000020: e81d 68bc ab2b 1e3d 65e2 243d 423b 113d
00000030: 2dde 8c3d 356c 943d 0af5 583d 66ea 573d
00000040: 03bb 8b3d f0bd 0ebc f3ef 4c3d 1538 603c
00000050: 01c0 c3bc 06ed d7bc 719f 51bd 0b73 94bd
00000060: 2444 ea39 cf58 203d 5ad8 173d 2078 123b
00000070: e652 17bd 8cc0 8a3d 3db1 023d 42cf f03c
00000080: 138e 9e3d 2b91 03bd 9b3f 693d b542 223d
00000090: 744d 3fbd a621 34bd 07be 45bd a59f 8ebd
000000a0: fbcf 923c 0e3f fd3c 7207 74bd 539a 83bd
000000b0: 3eea 7bbc c025 0e3d b6a5 4dbd 0047 b239
000000c0: b807 fb3c 2b5c 943d 4c87 a63b 7f18 28bd
000000d0: cda3 c6bc 7a46 6c3c 184b d2bc b750 a3bd
000000e0: 71e4 213d 15a3 4fbd 5d78 893d 949b 233d
000000f0: 0a8a 90bd bf76 3bbd e20e 003d e09d 993a
00000100: 8247 2cba 00bd 563d a470 f1b7 2eb3 27bd
00000110: 75eb 413c aaeb 8fbd 6ead 4c3d ea14 72bd
00000120: e50e 8ebd a688 c6bd 9175 7abd 5bda febc
00000130: 7d05 513d 7e48 bbbd a287 bbbc 2533 b33c
00000140: 19eb 82bd 9653 acbc feef 663d 5119 1fbd
00000150: dc2f d2bc a256 36bd 7125 acbd 12de 49bd
00000160: 22d8 44bd 6b4f 8abd 6ab3 2e3d 5233 d53c
00000170: 5fe3 aabd 78b8 07bc fdfe b9bc ec3e 46bd
00000180: b6c2 26bd 20a6 0fbd d874 5fbc 8215 503d
00000190: 9468 0ab9 bb92 353d 0979 863d b08e c1bd
000001a0: d434 f5bc ac78 62bb 0ba4 f53b 7505 253c
000001b0: 4b19 20bc 3672 97bc eef1 b2bd cfb2 9cbd
000001c0: 8093 8c3a e1c3 843d accb acbd bace 32bd
000001d0: 4d6e 28bd acf1 103d 6eee 20bd beb7 703d
000001e0: 1c27 063d ceab f7bd 95e2 15bd 48a0 543d
000001f0: 59d1 41bd 74e9 44bd a000 a2bd 083e 7f3d
00000200: 0a8c 5cbc ef4c a33d fed9 58bd 4072 06bb
00000210: e3bd 9fbd 5cf0 da3c 77df 8e3d 6501 933d
00000220: 2198 19bd 3cfe 1c3d 2e92 5b3d 183d b5bc
00000230: b2e0 6f3d 1006 6abc 6e07 6bbd 72d8 43bd
00000240: da4d 0bbd 5252 74bd 4ff6 e5bc 865b b33d
00000250: 2fd5 2e3d 955a b63b 4db6 8bbd acdd d3bc
00000260: 1ad3 61bd 3d89 4abd e8d4 653c 2fa0 873d
00000270: eb57 803c 08b5 373d 4ec1 73bd 0113 c5bb
00000280: 16ee 41bd d8f5 943c 1680 843d 0b03 afbd
00000290: 31c9 563c 7840 a93c 0277 afbd 3c5b 90bd
000002a0: 2254 62bd 1366 88bc 2c14 91bd a7d4 863d
000002b0: cc49 9fbd 0065 60bd 35e4 4abd 9656 e6bc
000002c0: 523d 0abd 0aa7 303d 9e54 5d3c 7000 dcbc
000002d0: 7595 d3bc ba92 8dbd 418a a93d fd74 843d
000002e0: 7bd9 c8bd b06e 02bc 608c 393b 56c9 173d
000002f0: f835 5cbd f267 6abd 7a88 91bd 0e16 2a3d
00000300: b7c2 d0bd cca4 c5bd 747c a8bd 41e5 213d
00000310: 1f94 67bd e163 783d 6006 a6bc 8e75 623d
00000320: 14a9 3f3d 008b d5bd a45c f2bb b8fc 453c
00000330: 17ee 3e3d d56b 8f3d 678c 87bd e78f c7bc
00000340: 1f1c 4ebd 82e2 1d3d acbf d53b dc54 8abd
00000350: c865 683c f44b 6e3c 404e 103d 1cbc a8bd
00000360: 77a8 6abd 5fc9 a2bd 3b14 06bd ad44 37bd
00000370: 337c 4d3c a996 8ebc b198 673d 979c 893d
00000380: 2a1a 493d 8d64 d0bd 882f b23c 45df a8bd
00000390: 91bb 1e3c 14bb c7bd 37fb a23d 2018 a7bd
000003a0: 375d 8e3d 6458 9eba 7b20 a5bd e1f2 bf3a
000003b0: 4a2f 38bd 9b5a f7bc 896c 56bd c2de 07bd
000003c0: 4491 bc3c 09e6 833c c63c 3dbd 6518 6e3c
000003d0: 4c1e 65bd 4828 583c 5a46 563d c506 4dbd
000003e0: 4f38 1c3b 8f12 493d a24e ecbc 2d89 aabc
000003f0: 54ee 14bd 6d49 6d3d a10a 733b b733 8cbc
-0.053795543 0.0019906983 -0.07424284 -0.04537772 0.014378701 -0.08923526 0.019245334 -0.026848065
-0.014167286 0.038615864 0.04025497 0.035456903 0.06878314 0.07247201 0.052968062 0.052713774
0.06822779 -0.008712277 0.05003352 0.013685246 -0.023895266 -0.026358139 -0.051177446 -0.07248505
0.00044682727 0.039147194 0.037071563 0.0022349432 -0.036944292 0.06775007 0.03190731 0.029395703
0.07741942 -0.032120865 0.056945425 0.039614398 -0.046704724 -0.043977402 -0.048276927 -0.069640435
0.017921438 0.030913856 -0.059577413 -0.064259194 -0.015375672 0.03470397 -0.050206862 0.00034003705
0.030643329 0.07244142 0.0050820466 -0.041038986 -0.024248028 0.0144211 -0.025670573 -0.079743795
0.0395245 -0.050692637 0.067124106 0.039943293 -0.07057579 -0.045767542 0.031264193 0.0011720024
-0.0006571935 0.05242634 -2.8781891e-05 -0.040942363 0.0118359225 -0.07027371 0.049970083 -0.059101976
-0.06936435 -0.09694032 -0.061147276 -0.03110998 0.051030625 -0.09144686 -0.022891823 0.021874974
-0.063924976 -0.02103595 0.056381218 -0.038842503 -0.025657587 -0.044516213 -0.08405579 -0.04928405
-0.048057683 -0.06753429 0.04265157 0.026025448 -0.08344149 -0.008283727 -0.022704596 -0.04839985
-0.040713035 -0.03507054 -0.013638698 0.05080176 -0.00013199664 0.044329386 0.065660544 -0.094510436
-0.029932417 -0.003455679 0.007496362 0.010072102 -0.009771655 -0.018487077 -0.08737551 -0.076512925
0.0010725111 0.064826734 -0.08437285 -0.04365418 -0.041120816 0.035386726 -0.039289884 0.05876898
0.03275214 -0.12093316 -0.03659304 0.05191067 -0.04731879 -0.0480742 -0.079102755 0.062315017
-0.013461122 0.07973658 -0.05294227 -0.0020514876 -0.0779989 0.02672594 0.06976216 0.07178
-0.037498597 0.038328394 0.053606205 -0.022123858 0.058563896 -0.014283672 -0.057380132 -0.04781384
-0.034009792 -0.05964882 -0.02807155 0.08757691 0.042683776 0.0055649974 -0.068218805 -0.025862537
-0.055132963 -0.049447287 0.014027812 0.066223495 0.015666923 0.04485038 -0.05951052 -0.0060142283
-0.047346197 0.018183634 0.06469743 -0.08545502 0.013109491 0.020660624 -0.08567621 -0.070486516
-0.055256017 -0.016650235 -0.070839256 0.06583529 -0.077777475 -0.05478382 -0.04953404 -0.02811746
-0.033749886 0.04312805 0.013508944 -0.026855677 -0.025828103 -0.069127515 0.08278323 0.06467626
-0.09807106 -0.00796096 0.002831243 0.037057243 -0.053762406 -0.057228036 -0.07106109 0.04152494
-0.10193389 -0.09650573 -0.082268625 0.039525274 -0.056537744 0.060642127 -0.020266712 0.05528789
0.046792105 -0.10426903 -0.0073962975 0.012084179 0.04661378 0.07002989 -0.066185765 -0.02436061
-0.050319787 0.038546093 0.006523093 -0.06754467 0.014184423 0.014544476 0.035230875 -0.08239004
-0.057289567 -0.07948565 -0.032734137 -0.04474323 0.012541818 -0.017405825 0.056542102 0.0671932
0.049097218 -0.101754285 0.02175118 -0.0824571 0.009688274 -0.09752479 0.07958072 -0.08158898
0.06951373 -0.0012080786 -0.08062836 0.0014644527 -0.044966973 -0.030194571 -0.0523496 -0.033171423
0.023018487 0.0161009 -0.046200536 0.014532183 -0.055937096 0.013193198 0.052313186 -0.050055284
0.0023837273 0.049089964 -0.028846089 -0.020817364 -0.0363601 0.057931352 0.0037085193 -0.017114503

net.2.bias f4 [128]
00000000: 6fd3 07bd 2bd4 afbd 67b6 2dbd d6e7 cbbc
00000010: 1fe5 79bc 0482 2f3d 2f42 3fbd ede0 97bd
00000020: 28fc 8c3d c4aa 043e 8830 e0bd 201f fb3c
00000030: 51a2 893e 845b 403c c645 15bd aacd 85bd
00000040: 9c88 3b3d 5b95 d13b cd0e e53e 186c 97bd
00000050: c284 c8bb 9fbd bebd 18f2 44bd 9cd7 e7bd
00000060: 93b0 80bc 5e83 3d3e afb7 21bd 6409 efbc
00000070: 06f0 06bd 544d 0e3d ac45 96bd a29f 6d3e
00000080: 8c94 75bd 2803 bc3e 0bef f2bc 0328 d9bd
00000090: b51a 423d 9c21 8a3e ddb4 65bd e21b 0dbd
000000a0: d6a0 28be c279 17bc 3951 9ebd fbb7 a43e
000000b0: b61a e33e 2bfa a5bd 472c 17bc f6d7 443c
000000c0: 25ae 0e3e bf3d a73c dbed 96bd 02f7 83bc
000000d0: c103 083d c3da 273d 769d 5f3e ff72 10be
000000e0: db67 f7bc 151c 76bd 8dd0 68bd 7c5c 803d
000000f0: 3cb3 9e3e 7e57 363d ca49 253e 224f 933b
00000100: 10f2 5bbd 7b5d 743d 79ea 69bc ad66 843e
00000110: 1d8d 87be 1b49 bdbc b8b8 cd3c d8d2 323e
00000120: b329 3b3d 87f8 b33c 641e 50bd dfbb aebd
00000130: 28cc 4abd f9a5 a3bd 7bc2 6b3d c68d 32bd
00000140: 39ca 64bd c48b 3a3e 200e 823e 9d15 aabd
00000150: 8ddc 74ba 4e46 183f 9578 11bd c363 773c
00000160: afaa af3d c518 653e eeb0 1dbd 0b50 6dbd
00000170: 1933 753e 9319 9cbd d845 97bd bce9 343d
00000180: 3f99 9f3e ea24 563e 39fd 9cbc 4ca9 94bd
00000190: 6a89 8cbd 5a1f e9bd f5f8 173e d32f 073d
000001a0: 2190 5bbd 53e1 e33d 58ae b4bd 632d 78bc
000001b0: 17ae 77bd a8a1 a33e b6a1 ab3d 6828 0e3d
000001c0: ac14 2b3e 02fd 47bc e34c fbbc 7bfd 9d3e
000001d0: 8aac 10bd 0285 aa3e aef3 b3bd dd54 d0bc
000001e0: f7a7 373d 381e 4b3e be29 343e ecc4 aabd
000001f0: 9229 263f d813 db3e 714a cc3b 9d3c 7bbd
-0.033160623 -0.0858539 -0.04241028 -0.024890821 -0.015252381 0.042848602 -0.046693977 -0.07415948
0.068840325 0.12955767 -0.109467566 0.03065449 0.2688165 0.011740569 -0.036443494 -0.06533368
0.045784578 0.0063959784 0.44737855 -0.07393664 -0.0061193416 -0.09313511 -0.04808244 -0.11320421
-0.015709197 0.18507144 -0.039481815 -0.029179282 -0.032943748 0.034741715 -0.073375076 0.23205426
-0.05995612 0.36721158 -0.029655 -0.10603335 0.04738875 0.26978767 -0.056080688 -0.03445042
-0.16467604 -0.009245338 -0.07730336 0.32171616 0.44356316 -0.081043564 -0.009226865 0.01201438
0.13933618 0.020415185 -0.07369586 -0.016108993 0.033206705 0.04098011 0.2183741 -0.14106368
-0.03020089 -0.060085375 -0.056839515 0.0626764 0.3099612 0.044517033 0.1614143 0.0044955174
-0.053697646 0.059659462 -0.014277094 0.25859585 -0.26474848 -0.023106148 0.025112495 0.17463243
0.045694064 0.021969093 -0.050810233 -0.08531927 -0.049511105 -0.07990641 0.057558518 -0.043592237
-0.055856917 0.18217379 0.25401402 -0.08304904 -0.0009340726 0.59482276 -0.035515387 0.015099469
0.08577477 0.2237273 -0.03849881 -0.057937663 0.23945273 -0.076220654 -0.073863685 0.04416822
0.31171605 0.20912519 -0.019163715 -0.07258853 -0.06862147 -0.11382933 0.14841063 0.033004593
-0.05360425 0.111269616 -0.08822316 -0.01514754 -0.06046876 0.3195927 0.08380453 0.034706503
0.16707104 -0.012206318 -0.03067631 0.30857453 -0.035320796 0.33304602 -0.087867126 -0.025431091
0.044837918 0.19835746 0.17594048 -0.08338341 0.6490718 0.42788577 0.00623446 -0.061337102

net.4.weight f4 [9, 128]
00000000: e015 5bbd b877 51bd b037 e8bb d082 223d
00000010: bab2 aebe a3fc cfbb a407 d73c 6411 8bbd
00000020: 7ab2 51be 900f 3f3f 7fa8 b8bd 23bd a43d
00000030: 9bae 34be 906f 693d e5a8 d53c 89fc 99bd
00000040: cf56 43bd fd9e 70bd 4a67 f93e 4806 b13c
00000050: 5bc2 bebe c7e4 993d f0b0 10bc 62a8 563d
00000060: dcb4 063d 6527 a3be 249e 5abe 2b07 22bd
00000070: 3499 86bd 5ba8 2d3d a702 31bd df43 89be
00000080: 4887 cfbc b58e 5f3e 6006 bb3c b019 753e
00000090: 947c 81bd 4e00 95be 4639 443d 534b 493d
000000a0: 46cf 213e 08fa dc3f 2f97 8c3d 4555 243f
000000b0: d627 2a3f 32eb 243d a1c4 383d 8423 dabc
000000c0: 14ed adbe 7d16 4bbd 857e bf3a 7d2f 7a3d
000000d0: 91f7 6b3d 0b47 03bd 898f c8be e1b2 c83d
000000e0: ab21 90bd 015d b73d c0cc b63c 1763 10bd
000000f0: a703 3ebe dd42 0cbd e84b 90be f472 0ebd
00000100: a0a2 e2bd 02a7 89bd 9ab5 77be e544 d73e
00000110: 5d6b 003e bb83 fdbb f018 22bd 8543 92be
00000120: 875c f0bc bb26 d53d 315b 54bd 6104 a9bb
00000130: 2a7a 9ebd fd5f b33d 0776 433d a3a5 8e3d
00000140: 5e96 bb3d 9b68 adbe 170d 333f 6c00 4cbd
00000150: 0f46 113d 376d 4a3f a764 93be 307d 44bc
00000160: f7eb d3be 36b8 bbbe 16f7 b9ba 325b b9bd
00000170: cf4d f3bd c612 81bc 3679 983c 7af6 63bd
00000180: ef10 3f3f 6c53 c43f 9aa8 28bd baeb 313d
00000190: beaa d93d 4a63 d33d 9cfb d3be 27e0 bcbd
000001a0: 9892 0dbc 6f33 833d 78b9 c03c bc01 94bc
000001b0: 84fd be3b 43a8 d7be d3b6 e03e 355d 28bd
000001c0: ea91 c6bd ac68 0dbd 4738 4cbc 5bbc 053f
000001d0: c816 5f3d bbba 7ebe d737 d33c 47b0 83bd
000001e0: 79f0 95bc 4942 913e 8890 df3f f106 15bd
000001f0: 6a32 183f 9af5 53bc 6b17 39bd a9b6 173c
00000200: dd78 69bb 95c9 673c ec81 56bd 4ca6 47bb
00000210: 596a a5bc 6d07 87bc c05b 403b bdc2 53bd
00000220: 44ae aabe 1bee 923e 24f8 24be 3219 373d
00000230: 8892 39bf 008c 9d3d 1b74 203e c08c 1dbc
00000240: a2a5 a03c 0eab b8b9 b531 7f3f 8836 30bc
00000250: b20b de3e a7fd b8bc 3ca3 d3bc 9a7e bd3d
00000260: 60d1 7cbd 00b0 82be 4e41 afbc 45aa 863d
00000270: 2389 a03c f244 42bd 3727 80bd 74b5 85be
00000280: 0201 99bd 110e 953e 2e80 aabd 5bd9 bbbc
00000290: 3388 db3c 5c23 b4be 5e57 b8bd 846c 1dbd
000002a0: 7e1e 9b3e 5672 423f 0d92 883d dc7d d73e
000002b0: 632e 0d3f dfe2 83bc 02cf 4abe 11a1 43bb
000002c0: 2de8 d0be e4a8 83bd 5c78 c6b9 5b2f 83bb
000002d0: 8589 353d 286e d0bc c8bf ecbe b3ef 463f
000002e0: cf6e 77bd b1b7 893e 1c0b 823c f7d5 043c
000002f0: bd57 dfbe 4850 ca3c af9c 77bd 0de1 9abd
00000300: bdfa 4bbc edad 70bd 6243 08bf e3ba 703e
00000310: 3a21 083f ef09 833d 2839 f5bc 95b9 db3e
00000320: 863d dbbd 3332 a5bc 7191 3e3b 2518 80bd
00000330: 4446 fd3c c009 f83a e882 7b3c 7b90 7d3d
00000340: b2af 663d 410a 80be bd6c 8b3e 0434 f8bc
00000350: 6cf0 543d d310 683f 8705 16bf c258 313d
00000360: ae4e 8fbe 29d4 8bbe fe9b 543c a63e 3cbd
00000370: e72d 363f ce37 6a3d af96 ad3d 2929 6abc
00000380: 353c 143f d952 3b3e c8be 043d d7ef 89bd
00000390: 0182 91bd b219 3a3a 23e2 343f bd3b 10bf
000003a0: 3eca 653d c4e1 f4bd b083 543c d32c aa3d
000003b0: 760c 873d 7793 48bf e630 d03d 7f5a dc3d
000003c0: a8c6 cc3e 6a65 263d d983 3e3c b11d 1d3f
000003d0: 3411 353d 96a7 a6be 9731 b5bd f00c cb3a
000003e0: 9342 b83c 5785 c03d 4e27 9d3e 84a2 d5bc
000003f0: b113 9d3e 99fe a6bf 6163 b53c aec1 f73e
-0.05348766 -0.051139563 -0.0070867166 0.039675534 -0.34120733 -0.0063472553 0.02624876 -0.067904264
-0.2047824 0.7463312 -0.09016513 0.080438875 -0.17644732 0.05699116 0.026081512 -0.075188704
-0.04769021 -0.058745373 0.48711616 0.02160944 -0.37257656 0.07514339 -0.008831248 0.052406676
0.032887325 -0.31865993 -0.21349388 -0.039557617 -0.0657219 0.042396884 -0.04321542 -0.26809594
-0.025333062 0.21831782 0.022830188 0.2393558 -0.063225895 -0.29101795 0.047906183 0.0491441
0.15801725 1.7263803 0.068647735 0.6419261 0.66467035 0.040263362 0.045109395 -0.026628263
-0.3396994 -0.049581993 0.0014609849 0.061080445 0.057609145 -0.032050174 -0.3917201 0.097997434
-0.07037672 0.08953286 0.02231443 -0.03525075 -0.18556081 -0.034243453 -0.28182912 -0.034777597
-0.110661745 -0.06721307 -0.24190369 0.4204475 0.12540956 -0.0077366508 -0.039574564 -0.28567138
-0.029340995 0.10407778 -0.05184478 -0.0051579927 -0.07738145 0.08758543 0.04771998 0.069651864
0.0915954 -0.3386887 0.6994185 -0.04980509 0.035467204 0.790729 -0.2878773 -0.011992738
-0.41390964 -0.3666398 -0.0014188017 -0.09050597 -0.11880075 -0.015756022 0.018612485 -0.05565498
0.74635214 1.5337958 -0.041176416 0.043437697 0.106282696 0.10321672 -0.414029 -0.09222441
-0.008640908 0.064062946 0.023525938 -0.018067233 0.0058285613 -0.4212056 0.43889484 -0.041104514
-0.096958 -0.03452365 -0.012464589 0.5224053 0.054465085 -0.2487592 0.025783462 -0.064301066
-0.018303143 0.28370884 1.7465982 -0.036383573 0.59451926 -0.012936974 -0.04518835 0.009259858
-0.0035625019 0.014147182 -0.052369997 -0.003046411 -0.020192312 -0.016483033 0.0029351562 -0.05169939
-0.3333608 0.28697285 -0.16110283 0.044701762 -0.72489214 0.076927185 0.1566929 -0.009616077
0.01961023 -0.0003522266 0.9968522 -0.010755189 0.43368298 -0.022581888 -0.025834672 0.09252663
-0.061723113 -0.25524902 -0.021393444 0.06575445 0.019596642 -0.047429033 -0.0625748 -0.26115
-0.07470895 0.29112294 -0.083252296 -0.022930792 0.026798343 -0.35183227 -0.09001039 -0.038433567
0.302967 0.7595571 0.06668482 0.4208821 0.55148906 -0.016099392 -0.1980553 -0.0029850642
-0.40802136 -0.06428698 -0.00037855178 -0.004003448 0.044320602 -0.025443152 -0.46240067 0.777095
-0.06040841 0.26897958 0.015874438 0.008107654 -0.43621626 0.024696484 -0.06045216 -0.07562456
-0.012449917 -0.05875962 -0.5322782 0.23508792 0.531757 0.06398379 -0.02993448 0.42915025
-0.10705094 -0.020165538 0.002907839 -0.06254605 0.030917294 0.0018923804 0.015351035 0.061905365
0.0563199 -0.25007823 0.27231398 -0.03029824 0.051987097 0.9065067 -0.58602184 0.043297537
-0.27989715 -0.27310303 0.012976645 -0.045958184 0.7116379 0.057182126 0.08476006 -0.01429204
0.5790437 0.18293323 0.032408506 -0.06735199 -0.071048744 0.0007099166 0.7065756 -0.56341153
0.056101076 -0.11957124 0.01297085 0.08309331 0.065941736 -0.78350013 0.10165577 0.10759448
0.39995313 0.04062406 0.011628115 0.6137343 0.04420586 -0.32549733 -0.08847349 0.0015491527
0.022492683 0.094004326 0.3069405 -0.02607847 0.30679086 -1.3046447 0.022142114 0.48389953

net.4.bias f4 [9]
00000000: 2569 ecc0 9426 f0c0 2c3e 0dc1 c9fb 02c1
00000010: 1c1f f4c0 a90d d7c0 2850 efc0 e3ce 0bc1
00000020: d2f8 0ec1
-7.387835 -7.5047092 -8.827679 -8.186471 -7.6287975 -6.7204175 -7.4785347 -8.738009
-8.935747
