Reinforcement Learning/modelos/cartpole_dqn.pth (torch, 288358 bytes, 24 tensors)

network.0.weight f4 [128, 4]
00000000: 9edd c33e 0880 59be 546e a43e 3409 7e3e
00000010: 3b9c a63d e250 f13c 3feb 56be 547b b53d
00000020: 0dc2 acbe b9cf 003e 40c1 9c3f 46f7 083f
00000030: 2f4c 0ebf 69e8 573e b1ad e93f a957 eb3e
00000040: df5d 81be d2d3 bcbe db3c 37bf 1578 c9be
00000050: 6f3a e3be 38b9 c53e 5c9c 95be 27a8 933d
00000060: 423f a23d 95d8 2abe 84c8 073f ce8d 0ebe
00000070: 3316 c53d fe49 d13e 9f3c 923e 2085 283e
00000080: 93cb 473e 86a6 17be 9f15 debf 32bb bdbe
00000090: c87c 05be 4017 823c c4b1 11be f46d 0ebe
000000a0: 809f 673c c06b 12bc d40f 58be 206a e9bc
000000b0: bf94 ddbc 4642 bb3c 426d 0f40 3827 533e
000000c0: 0945 5dbf dc6c 9c3e edff abbe aa56 493e
000000d0: 6dbc 893e ca71 303e ceda 2a3e 9ece b53d
000000e0: 7fdb ebbe 298a 90be db64 a63f 5bcc 98bd
000000f0: 7ca7 9f3e 2a9d b6be 3315 e23d 17ac 3bbe
00000100: 8dc8 df3c 1072 ef3c 128f cc3f 11e3 873e
00000110: e056 e13c 10ec 2fbd 0ace fc3e a064 7bbd
00000120: 229b 6f3e 2563 673e 59df 7dbe 093d adbd
00000130: 88e7 183e d322 2b3e bdf6 dbbe bf00 5e3d
00000140: d033 083f 907b 7c3e abc0 babe e6a6 183d
00000150: fefe 17bf 3555 40be d752 093f f9ba a3be
00000160: f59b eebe 0fd2 b5be 32fb 923d cd0c 9cbd
00000170: ace4 bb3d 6cf2 313d dd15 3c3f 6369 d3be
00000180: 1b46 1a3d 7cc9 213e 839b 52bf fb4d af3e
00000190: a562 88bd 1208 713e 474b 9b3e 746e 1fbd
000001a0: 48b6 9a3e f7fd 26be a72e d83c 2e5e 7dbe
000001b0: 8a4d dd3e 5287 d6bd 8247 8a3c e721 fb3c
000001c0: 1dec e5be 453a af3e 3c7f d6be c69b 393e
000001d0: f509 2d3f 5ff1 04be 671b b13d 3629 9fbe
000001e0: ed65 d33e 107a 0a3e a6aa 3ebf 4960 883e
000001f0: 22b4 ebbc 352a d23e 2a7e af3f f859 e73e
00000200: 6be6 27bf 31e4 94be 1d42 33bf 7734 bd3e
00000210: 3fd9 dd3e b82a 99be c532 27bd 8141 abbe
00000220: 748a 9ebe b36a 96be e3b9 a2be d4ab 24be
00000230: 53e9 8f3c 34eb 62bd 7a31 0840 6132 433e
00000240: bac4 6e3e b869 1ebe 7077 7cbf 72aa b1be
00000250: 8297 453e 651c 2bbe ca22 febf de14 dcbe
00000260: a46f 1dbf 7dd7 b9bd 2445 4fbd cbbe 653d
00000270: 0fb0 99be 8989 53be 5e11 7d3f 05fd d2be
00000280: 0761 cb3c 33a7 f83e b449 b0be 4ec7 f23e
00000290: d035 37bd 728f 843b 108d f2be 8b99 4e3e
000002a0: af70 7c3e 2b04 48bd 85dd 943e e9b6 4c3e
000002b0: 8317 2f3d 97a5 23be 1ded 50bf 279f 8e3e
000002c0: 8db9 543e f255 5fbe 9216 3bbe 4ee2 c6bc
000002d0: bf4f 9ebe 5200 3a3e 2a42 9c3f 8b11 c53e
000002e0: 1ef6 283e ee1b 8cbe a9b1 04bf 1b96 c53e
000002f0: 4cbf 8b3e f32e cebe 3923 4b3e 6b95 a4be
00000300: abe1 68be 4a15 a7be 60ed d53e a659 833e
00000310: 86a3 d03d 8f1a bbbd 406c adbe 632e d0be
00000320: 7655 adbe df4b 9c3e 2c7a ea3d f5dc a73d
00000330: 68c8 42be 06b6 18bc 91a6 d6be f7ea 703c
00000340: 9dfb 6dbe a7dc adbc 64b2 e0bd 4e5c c8be
00000350: d2d7 1ebc 07a6 46bb 0f7b c53f 573a 073e
00000360: ab2a 45bf 4ed9 7f3d 9cc5 9bbe 4c21 4f3e
00000370: 8c05 97be 237a 9a3e 96d7 d93d 7cbe d63e
00000380: b1e2 60bf b213 683e c54e dbbe 162b 933e
00000390: 55a4 2c3d 211f 5abe fc0d 9ebe 70b7 34be
000003a0: 217f 94be 8fce f6bc 6e36 153f 378e f4bd
000003b0: 381c 713d 8bc9 273e 6467 4fbf 57ae 3bbe
000003c0: 0884 743e e8b1 c93e eaf7 64be 3099 6d3e
000003d0: be37 21bf 7e87 a9be d69d 763e 9bf2 0abe
000003e0: 63aa 133e 3d7e 07be b017 f0bf 5457 b7be
000003f0: 27d5 58bf 8b04 97bd 9738 f73e c6ab 34be
0.38255018 -0.21240246 0.32115424 0.24808198 0.08135267 0.029457513 -0.20988177 0.088614136
-0.337418 0.1257924 1.2246475 0.5350231 -0.55584997 0.21084751 1.8256131 0.45965317
-0.2526693 -0.36880356 -0.71577233 -0.39349428 -0.4438052 0.38617873 -0.29220855 0.07209807
0.07922222 -0.16684182 0.5304034 -0.13921282 0.09623375 0.40876764 0.28561875 0.16457033
0.19511251 -0.14809617 -1.7350348 -0.3705688 -0.13035882 0.015880227 -0.14227968 -0.13909131
0.014137149 -0.008936822 -0.21099788 -0.028492987 -0.027048467 0.02285875 2.2410436 0.2062043
-0.86433464 0.30551803 -0.33593693 0.19661966 0.2690157 0.17230907 0.1668503 0.088773
-0.460659 -0.28230408 1.2999529 -0.07460853 0.31182468 -0.35666782 0.110392 -0.18327366
0.02731731 0.029229194 1.5981162 0.26540425 0.027507246 -0.042949736 0.49375945 -0.06137526
0.23399022 0.22596414 -0.24792232 -0.08458907 0.14932072 0.16712503 -0.42961684 0.05419993
0.5320406 0.2465651 -0.3647512 0.03726854 -0.5937346 -0.18782504 0.5364203 -0.31978586
-0.4660336 -0.35511824 0.07176818 -0.07619629 0.09174475 0.043444082 0.7347086 -0.4129134
0.037664514 0.15799516 -0.8226854 0.34239182 -0.0665944 0.23538235 0.3033087 -0.038923696
0.30217195 -0.16307817 0.026389433 -0.24742958 0.4322322 -0.10475029 0.0168798 0.030655814
-0.44906703 0.34224144 -0.41893947 0.18125829 0.6759332 -0.12982701 0.08647805 -0.3108613
0.412887 0.13523126 -0.7447914 0.2663596 -0.028772417 0.41047826 1.3710377 0.45185828
-0.65585965 -0.29080346 -0.70022756 0.3695409 0.43329808 -0.29915404 -0.040819902 -0.33448413
-0.30965006 -0.2937828 -0.31782445 -0.16081172 0.017567312 -0.05540009 2.1280198 0.19062187
0.23317233 -0.15470016 -0.9861975 -0.34700352 0.19296077 -0.1671005 -1.9854367 -0.4298467
-0.61498475 -0.09074304 -0.050603047 0.056090157 -0.30017135 -0.20657934 0.98854625 -0.41208664
0.02482654 0.48565063 -0.3443123 0.47417682 -0.044729054 0.0040454203 -0.47373247 0.2017576
0.2465236 -0.0488321 0.29075256 0.1999165 0.042747032 -0.15981136 -0.81611806 0.278558
0.20773907 -0.2181013 -0.18270329 -0.024277832 -0.30920216 0.18164185 1.2207692 0.38489947
0.16500136 -0.2736506 -0.5183359 0.38591084 0.27294385 -0.40270194 0.19837655 -0.32145247
-0.22742335 -0.3263343 0.41782665 0.25654334 0.101874396 -0.09135925 -0.3387165 -0.4066039
-0.33854264 0.30526635 0.11449084 0.08196441 -0.19021761 -0.0093207415 -0.41923955 0.0147044575
-0.23240514 -0.02122338 -0.10971525 -0.39132923 -0.00969501 -0.0030311362 1.542818 0.13205849
-0.7701823 0.062463097 -0.304242 0.20227545 -0.2949642 0.30171308 0.10636823 0.41942203
-0.87845904 0.22663763 -0.42833534 0.2874381 0.042148907 -0.21300937 -0.30870044 -0.17648101
-0.29003242 -0.030127792 0.5828618 -0.11941188 0.058864802 0.16385476 -0.81017137 -0.18328224
0.23878491 0.39393544 -0.22360197 0.23202968 -0.6297568 -0.33111185 0.24083647 -0.13569109
0.14420466 -0.1323175 -1.8757229 -0.35808814 -0.84700245 -0.073739134 0.48285362 -0.17643651

network.0.bias f4 [128]
00000000: 4a35 e8bd 8aba b73e 99a0 0ebf 3f4e 03bf
00000010: ffb1 12bf 82a5 1f3f 5d36 a43e 35d9 143f
00000020: efc6 d6be 0a02 d5be 7cc6 84be fac6 c6be
00000030: ee28 4f3e 31a4 56bf da94 8fbd 466e df3e
00000040: b7ef a1be a03b ecbe bf87 843e 7a4f 893e
00000050: f40e 2cbe c752 b13e d774 473e 17a5 c3bd
00000060: 3301 8e3d 9fee a43e 2164 943e 7244 3abf
00000070: aadf b9be b2e3 06be 4b70 0c3e 6d65 37be
00000080: bf8b 22be 82e7 603e 24dc 333e c7b4 b3be
00000090: 7690 c3be a559 d0be 97fb 5a3e 192d bdbd
000000a0: 93cd b73e 374d eabe 732b 94be e03f e63c
000000b0: dbe7 cebe c8eb e9be d479 123e 3cc6 593e
000000c0: 9b13 42be 18fc d3be 5196 193d 2a07 f5be
000000d0: 4935 2fbe 8cf1 b1be 5172 453e 1130 023f
000000e0: 81cc fa3d 8535 f93e d8d7 74be fe8f 10bf
000000f0: da2b 20bf 4ccb 883e a327 cabe 4fe7 5d3b
00000100: 2b1b 793d 3a07 78be 1547 a8be c18a 893e
00000110: e433 02bf 229f 853e 39ee 903e 4d37 803e
00000120: c0fb 623e 2269 07bf 8029 9dbe 2232 8f3e
00000130: 02a4 623c 28af bdbe ead4 27be a01a a6be
00000140: 6c08 d7be 5ff4 20be 1438 9dbe 1688 aa3e
00000150: 9b16 a1be 557f 16bd 2b70 0abf 2520 4bbd
00000160: 44e1 edbe fbe0 ffbe 805a 18bf 16a3 f03e
00000170: d478 b9be f8dd 9dbe 7df9 d1be a86b 123e
00000180: 5495 febe 31ca e1be c301 dd3d b40d 43bc
00000190: b7e0 a63e 445e 103f 9adf 133f a932 25be
000001a0: 7089 15bf 7c20 4ebd 91e3 32bf 8c2a 793e
000001b0: c411 cd3e 34de c9be c06b 2c3e c14c cabe
000001c0: e51d d1be 7e07 f43e 543c 14bf 5320 0f3f
000001d0: 77b4 f3bd ebf3 fe3e 6615 a03e 33cc debe
000001e0: 093c a8bd 3497 39bf a2d9 a13d a482 7dbe
000001f0: ed40 c2bc 6e11 133f 405d 1abe 245b db3e
-0.11338289 0.35884506 -0.557138 -0.5129127 -0.5730285 0.6236192 0.32072726 0.5814393
-0.4194865 -0.41603118 -0.25932682 -0.38823682 0.20230457 -0.83844286 -0.07010813 0.4363882
-0.316282 -0.4613924 0.25884816 0.26818448 -0.16802579 0.34633467 0.19478165 -0.09552973
0.069338225 0.32213303 0.28982642 -0.7276069 -0.36303455 -0.13172796 0.13714711 -0.17909785
-0.15873621 0.21963313 0.17564446 -0.3509886 -0.38196152 -0.40693393 0.21385036 -0.09237117
0.35899028 -0.45762035 -0.289394 0.02810663 -0.40411267 -0.456877 0.14304286 0.21267027
-0.18952791 -0.4140327 0.03749687 -0.47857028 -0.1711017 -0.34754598 0.1928189 0.50854594
0.12246037 0.48673645 -0.23910463 -0.56469715 -0.6256691 0.26717603 -0.39483365 0.0033859794
0.060816925 -0.24221507 -0.3286673 0.26863673 -0.5086043 0.2609797 0.2830675 0.2504219
0.22166348 -0.52894795 -0.30695724 0.27967936 0.013833048 -0.37047696 -0.16389814 -0.32442188
-0.41998613 -0.1571822 -0.30706847 0.3330695 -0.3146256 -0.036742527 -0.54077405 -0.049591202
-0.46460927 -0.49976334 -0.5951309 0.46999425 -0.36224997 -0.3083341 -0.41010657 0.1429888
-0.49723303 -0.44099572 0.10791352 -0.011905123 0.3259332 0.5639384 0.57763064 -0.16132607
-0.5841284 -0.05032395 -0.6987849 0.24332637 0.40052617 -0.3942734 0.16837978 -0.39511684
-0.4084312 0.47661966 -0.57904553 0.559087 -0.11899655 0.4979547 0.31266326 -0.43515167
-0.08214576 -0.7249634 0.07902838 -0.24756867 -0.0237126 0.5744847 -0.15074635 0.42842972

network.2.weight f4 [128, 128]
00000000: 6f91 433d efee 7cba 4346 92be fba2 e1bd
00000010: 48e6 39be 54fb 9ebc e150 88bc 679c ad3c
00000020: e715 613e 4644 663d e0d1 603b 2d2f 1dbd
00000030: bf8e dcbe 0831 35be e35f 63be f961 a73d
00000040: c723 ef3d 2885 823c d211 463d 1679 733c
00000050: 0ede 473e 7a72 99bb ee7b 10bf 6af9 a23b
00000060: 662b 373e b29a b93c b1d7 443e 7efc 33be
00000070: f220 e9bd 9366 b03e d1ed ab3d 4f47 4ebe
00000080: c0e7 5cbd fe34 6b3e dee4 51be 4b78 d73c
00000090: cb29 133f 0e8b fc3d 440f dfbe 45ee b0bc
000000a0: dd87 b83c a7d9 26bd 8b93 eb3d 51e8 153e
000000b0: 954a b3bd fdec 64bd bc45 abbd fb45 c53c
000000c0: 63ab adbd 0805 d03e 4d70 53be b45f a5bd
000000d0: f60e 5f3e 2fd3 4cbe 08ed 3ebf e5fe 8abe
000000e0: 2eaf 34bf b0df 13bc df49 8abe ff1f abbe
000000f0: 70b3 a6bd a2b8 ebbd b544 253e b446 fcbe
00000100: 2df9 943e 5a7a 933e 6564 213e ee10 b1bf
00000110: 2f2e 373f 92d6 613d c1ec cdbd fb3e 7bbd
00000120: 81e8 35bc 6158 553d 8ae9 4c3f 55c6 933d
00000130: 0286 a9be e492 a13c f773 f23e 2b84 80bd
00000140: 68fb 21be 8e42 8a3c 4aab 47be dca5 a03d
00000150: dbb5 dd3d 1fbb 033e 6aeb 01be eee2 323d
00000160: 966a ad3c dd51 23bd 0f24 1a3e 97b1 ebbe
00000170: e3e6 f3be 0063 8dbe a72c 89be 37a9 c43e
00000180: 80a7 9a3c c98b 57bd 1d64 50be a086 b93e
00000190: 9589 48bc 94fd 133d 733c 81bd 6279 983d
000001a0: ed73 573d 8e92 eabe 76fd e6bd cb0c b53d
000001b0: 304b 4cbc 67a8 f93e c402 debe 968f fd3d
000001c0: 3259 afbd 79d3 93bc 3567 86bd e091 8ebe
000001d0: ba72 683d 4d34 1cbe d2d5 103d eff7 f4be
000001e0: 15c8 403d 2d16 fcbe 5c4a 09be 7c97 483f
000001f0: d33f 22be 2f1f 973b d886 bbbe 5f50 bebd
00000200: d8a1 6fbc 060c b1bd f9a2 8c3d 54bf 833c
00000210: eafa 333d 2b52 febc 2766 383c 2186 e0bd
00000220: 78fa 273c cac6 443d 748c c23c 34a0 87bd
00000230: 0e91 4c3d 2299 aabd e8bd 8abd e049 99bd
00000240: 86e6 353d 4214 603d 55cd 273d 3fd5 203d
00000250: f876 83bd 3fc3 3ebd d1f1 aebd 0930 c7bd
00000260: 7d12 45bd fb4d 023c d74f bdbd 4028 9b3b
00000270: b2ec 283d 54e3 f6bc 1282 1c3d 5e9b 5c3d
00000280: 158a 09bd 575c 393d 6e98 7f3b d170 0dbd
00000290: 4c1f 99bd 93d2 ba3a a7b0 07bd 592a 0a3d
000002a0: 9813 2d3d b232 36bd ef0f 0dbd 7012 fd3b
000002b0: 4912 70bd 8ff3 86bd 503f 7dbc 75e1 8d3d
000002c0: fd67 1abd 16cf 93bd 801d bfbc 36ec 553d
000002d0: 322f 253d 4c98 8dbc 3495 04bd 4340 17bc
000002e0: fee4 a5bd 1ffd 91bd 6eec 77bd 1282 06bd
000002f0: e036 66bc 4f58 56bc d050 c7bb c8b3 643c
00000300: f7f0 743c 99ef 883d 855e a5bd d743 1d3d
00000310: d6ba 5f3d 250e b73c cc82 5fbd 75c5 a1bd
00000320: 4c08 bcbc 3882 373c ef51 b1bd 004b bdbc
00000330: 403f 4d3c a0b5 a8bc 4197 a3bd 15cc 4dbd
00000340: 29d3 853d b09e 24bd f60e 773d 46bb 1f3d
00000350: 53b8 87bd 4f79 29bd b088 e7bb 8c3e b2bc
00000360: 18f4 d0bc 64ac c43c e034 1238 8199 9fbd
00000370: 3354 85bd b9a3 a4bd 4118 9bbd effa a1bd
00000380: 3634 10bd 8a85 a3bd 2f9b 193d d64a 0fbc
00000390: b7a9 693d e289 763d 6e28 d3bd e2fb aabd
000003a0: 0ecc 623d f643 06bd e857 923c b0ae 5c3d
000003b0: 8905 6f3d 1481 afbc 3fc5 8cbd fe4b 19bd
000003c0: 7489 103d 10d5 8fbd 36f9 ecbc 9bd9 bfbd
000003d0: 5bba a9bc 7823 6bbc 7325 afbd 81c3 dbbc
000003e0: 9a70 263d 4881 c3bc d6c0 da3c 8567 893d
000003f0: 5fbd bdbd 17b3 ed3c 2ad2 82bd 041c 3d3d
0.04774612 -0.0009648641 -0.2856923 -0.11017414 -0.18154252 -0.019406952 -0.016640129 0.021192743
0.21981011 0.056217454 0.0034304783 -0.03837507 -0.43077657 -0.17694485 -0.22204547 0.08172984
0.11676746 0.015932634 0.04835684 0.014860412 0.19518301 -0.004682836 -0.564391 0.00497358
0.17887649 0.022656772 0.19222905 -0.17576787 -0.11383237 0.34453258 0.08394969 -0.2014439
-0.05393195 0.22969434 -0.20497462 0.026302477 0.57485646 0.1233121 -0.43566334 -0.02159799
0.022525722 -0.040734913 0.11502751 0.14639403 -0.0875446 -0.055890072 -0.0836291 0.02408122
-0.08479955 0.4062884 -0.20648308 -0.080748945 0.21783051 -0.20002435 -0.7458043 -0.27147594
-0.70579803 -0.009025499 -0.27009484 -0.3342285 -0.08139694 -0.11509825 0.16139491 -0.49272692
0.29096356 0.28804284 0.15760954 -1.3833292 0.71554846 0.05513627 -0.10054923 -0.06133936
-0.0111027965 0.052086238 0.8004385 0.07215563 -0.33110052 0.019723363 0.473541 -0.06275209
-0.1581856 0.016877439 -0.19498935 0.07844135 0.10825702 0.1286435 -0.1268746 0.04367345
0.021168988 -0.039872993 0.15052818 -0.46033928 -0.4763709 -0.27614594 -0.2679188 0.3841035
0.018878698 -0.052623544 -0.2035069 0.36235523 -0.012239833 0.036130503 -0.06310358 0.07445027
0.05260079 -0.45814937 -0.112788126 0.08840331 -0.012469098 0.48761293 -0.43361485 0.123809025
-0.085619345 -0.018045174 -0.06562654 -0.2784567 0.056750037 -0.15254326 0.035360165 -0.47845408
0.047065813 -0.4923567 -0.13407272 0.78356147 -0.1584466 0.0046118717 -0.36626315 -0.09292673
-0.014625989 -0.086448714 0.06867022 0.016082443 0.043940462 -0.03104504 0.011254824 -0.10963083
0.0102525875 0.048041143 0.023748614 -0.06622353 0.049943022 -0.08329989 -0.06774503 -0.07484794
0.044409297 0.05470682 0.040967304 0.039265867 -0.06419176 -0.04657292 -0.085422166 -0.09725959
-0.048113335 0.007953162 -0.09243744 0.004735023 0.041241355 -0.030137695 0.038209982 0.053859107
-0.03357895 0.045254078 0.0039000767 -0.03453142 -0.074766725 0.001425343 -0.033127453 0.033731792
0.042255014 -0.04448194 -0.034439024 0.007723145 -0.058611188 -0.06589424 -0.015456989 0.06927768
-0.037696827 -0.07217233 -0.023329496 0.05222722 0.040328212 -0.017284535 -0.032368854 -0.00923163
-0.081003174 -0.07128357 -0.06052821 -0.03283889 -0.014051169 -0.013082578 -0.0060826316 0.013958879
0.014950029 0.066863246 -0.08074669 0.038394775 0.05462154 0.022345612 -0.054568097 -0.0789899
-0.022953175 0.01120048 -0.08658206 -0.023107052 0.012527287 -0.020594418 -0.07987834 -0.050243456
0.06534416 -0.0401904 0.060317002 0.038996957 -0.06626954 -0.041375455 -0.007065855 -0.02175834
-0.025507018 0.024007984 3.4858356e-05 -0.077929504 -0.065102 -0.0803904 -0.075729854 -0.0790919
-0.035206042 -0.07984455 0.03750151 -0.00874587 0.05704662 0.06019009 -0.10310446 -0.08348824
0.055370383 -0.032779656 0.017864183 0.053877532 0.058354888 -0.021423854 -0.06873559 -0.037425987
0.035287336 -0.0702306 -0.028927427 -0.09367677 -0.020718744 -0.014351718 -0.08552065 -0.026826622
0.04063473 -0.023865357 0.02670328 0.06709198 -0.09264635 0.02901606 -0.06387742 0.046169296

network.2.bias f4 [128]
00000000: a60d a4bc 66db 5bbd f712 293e 22ad 423e
00000010: 2ca1 013e c6ad 2e3d 8e70 88bd d3d3 ce3d
00000020: 7544 01bc ea0e f9bc 3ebb b2bd a8f0 ba3d
00000030: 1e63 1d3e ead6 463d cd31 623d 1ed9 42bd
00000040: 534b 353e 645c 3d3e 875d 373e 1b01 94bd
00000050: d8a5 363e 75d0 f53d 94c6 8dbb 6741 1a3e
00000060: 5136 7d3d d634 3c3e 0bf4 e7bb 00bf 963d
00000070: 24ea 29ba 59e8 7dbd 38c7 a3bd 20c6 b6bc
00000080: deb9 afbc 6457 613e c8f3 553e 7b08 b13d
00000090: 74fe 633e 29a0 363e 1351 883e 18a0 7cbd
000000a0: 9e57 a7bd 108c 143e 32a5 2d3e 4a06 343e
000000b0: 5f26 5c3d 8ebe 043e dc66 873d a1f8 4d3e
000000c0: 4625 4d3e e5e4 dfbd 99a9 413e 9d7c 393e
000000d0: cd3c 90bc 7461 d43d 36f9 b3bd c328 19bd
000000e0: 829b 2b3c 5973 96bd 8d1c 41bd 9756 30bd
000000f0: a06a 273e 10b5 323d 5ea7 c5bd a930 9fbd
00000100: b390 493e a975 a2bd 2aff 9f3d d157 1abc
00000110: 3243 be3d c368 6ebb 9504 32ba 3f29 88bd
00000120: ad26 5bbd ada3 bfbd 0ee5 553e 99b6 d23c
00000130: 5b5c b9bd 7246 8f3d d4d1 973c 45a0 623e
00000140: d44e 513e b995 43bb d22f 203d f69e a3bd
00000150: 0936 c7bd d476 38bd b1af f1bd c761 7e3d
00000160: 0c69 ca3d 88c6 c4bc 9b53 313c 3b94 2b3e
00000170: 0564 e73d 639f c63d 7085 dbbc b202 ea3b
00000180: 8a15 173d 3e20 b63d d4e6 093d e27e 4cbd
00000190: 7c32 223e 29c4 003e 636e 3c3e cb3c af3d
000001a0: 2f95 7abd b650 85bd c99e 98bd e88e 34bd
000001b0: ed88 043d 2623 543d 7272 f3bc f316 383c
000001c0: 9bc1 ccbb a450 363e c099 ab3d d3e2 4e3e
000001d0: b96a c83c 814c a33c 8ded 0a3d 122b 263e
000001e0: 1cdd cc3d fa5e 60bd 245d a6bc 4fc7 093e
000001f0: acee 543e fcb8 cc3d 4571 9d3c 656e 303e
-0.02002604 -0.05367603 0.16511141 0.19011357 0.12659138 0.042646192 -0.06662093 0.10098996
-0.007889857 -0.03040262 -0.0872712 0.09127933 0.15369841 0.0485448 0.055223275 -0.04757034
0.17704515 0.18492275 0.17906772 -0.07226773 0.17836702 0.12002651 -0.004326651 0.15064012
0.06181938 0.1837953 -0.0070786527 0.07360649 -0.0006481728 -0.061989162 -0.07996982 -0.02231127
-0.021450933 0.22005993 0.20893776 0.08644196 0.22265035 0.17834534 0.26624355 -0.061676115
-0.081710085 0.14506555 0.16957548 0.17580524 0.05374753 0.12963316 0.06611416 0.20114376
0.2003375 -0.1093233 0.18912353 0.18113942 -0.017607117 0.1037015 -0.087877676 -0.03739239
0.010474088 -0.073462196 -0.04714637 -0.04305133 0.16349268 0.043629706 -0.096510634 -0.07772953
0.19684105 -0.07932598 0.078123406 -0.009420351 0.0929016 -0.003637836 -0.0006790844 -0.06648492
-0.05350368 -0.093573906 0.20888159 0.025721835 -0.090508185 0.06995858 0.018532671 0.2213145
0.20440227 -0.002984388 0.039108105 -0.07989304 -0.09727103 -0.0450352 -0.118010886 0.062104966
0.09883317 -0.024020448 0.010823156 0.16755764 0.11298374 0.09698369 -0.026797026 0.0071414346
0.036885776 0.088928685 0.0336674 -0.049925692 0.15839571 0.12574829 0.18401484 0.08556517
-0.06117743 -0.06509535 -0.07452161 -0.0440816 0.032357145 0.051791333 -0.029717658 0.01123594
-0.0062486655 0.178042 0.08378935 0.20203714 0.024464952 0.01993394 0.033917952 0.16227368
0.10003111 -0.054778077 -0.020308085 0.13454936 0.20794171 0.099962205 0.01921905 0.17229612

network.4.weight f4 [2, 128]
00000000: 717a 99bd e00f f9bb 85b7 5d3f 1c6f f63e
00000010: bef5 01bd 1d8e 793c 5ae7 b6bc d2d6 ebbe
00000020: f315 3b3d cfb0 f8bf 8016 233c f794 a3bd
00000030: d115 083f d59c 7cbc c73b 77bc 7a17 57bd
00000040: 6241 263f dcc6 88be 420c 7fbe 5066 c7bc
00000050: 4a23 453f f9b0 bf3e 4ee1 913d 5627 853e
00000060: 20ee 80bb 2442 893e 32a5 083d 2727 a33e
00000070: a87f f63c 4a3e f7bc 0ebd 57bd bbd1 25bb
00000080: 0d98 0abd 4230 783f 8d83 833e 55d0 933e
00000090: 6f40 9c3e e6c0 d33e b02c 7d3f 722f 73bd
000000a0: 6499 90bd e1b1 d5be 5064 b63e 4972 fb3e
000000b0: 9738 c3bc d0b9 00bf 353f c5bc a8c3 3c3d
000000c0: 5b84 0a3d 50c5 453d a21c 123f 76b8 973e
000000d0: 2999 1bbd 3a74 8a3e 6427 c5bc 2298 213d
000000e0: 6f31 61bd 8c8f 6cbb 0a8a 1c3d d860 47bd
000000f0: 71ae 213f 933b 063d 362f 8ebd c69a a4bd
00000100: 9edf 8b3e 0d0b 64bc 4169 c13e 6aa2 8bbd
00000110: a03f 343f 8064 903d 7544 453c dc47 453c
00000120: d3c3 f7bc 56f4 213d c27f 8c3e 04b9 8ebb
00000130: ba1a fabc 8940 3e3f 1513 81bd 0f08 be3e
00000140: 166b 56be 2efa 833d 160b 18c0 5752 e3bb
00000150: 519f 24bc 721e 46bd 4085 063d e8a0 a03e
00000160: a2e1 ba3e cbb8 44bd c8ee 67bd 54ee bb3e
00000170: 6527 603f 39eb 24bf c977 9f3e 88bc 62bd
00000180: 45b7 10bd 5645 903e 473c 69bd c622 2cbd
00000190: 9db7 bcbe f366 393d 7c28 693e 9ba2 8a3e
000001a0: 80ee b2bd 8cf1 963c 34bd a13c 4968 0abd
000001b0: c4c7 583e f6c2 9d3e 08c8 6dbc cc78 e63c
000001c0: 4d6b 05bd 4fb1 c83e c1cc 863e e969 fc3e
000001d0: cf3a 813d 9af1 79bd df1e debc 0e41 ac3e
000001e0: 9a30 e83e 642a 86bc 5e3c 953a 0b3d 173f
000001f0: b73a ff3e 13dc c13e 1f91 4ebd 6b61 af3e
00000200: 4acd 083f 8fa4 89b9 b9bf 50be 024b e93e
00000210: 757b 2f3f 02f1 e53e 3a77 2c3d e1f2 0e3f
00000220: 38b2 5abd be71 2cc0 c2c0 293d 7666 343f
00000230: c3c3 d93e de37 88bd 4ca2 02bc 2e88 523d
00000240: e3e9 a6bd 6e4c 183f ddcf 1f3f 68de 823c
00000250: 3736 a5be 7c25 003f b9db 95bd 3347 6c3e
00000260: 029c 24bd 119f e43e 942e 5fbd 022e 043f
00000270: 39de 12bd 6a44 57bc 7f42 593d 8426 83bc
00000280: 5c94 cb3c e234 32bf 5076 ff3e 403c c63e
00000290: 94f0 ba3e bd39 053f 9460 c1bf 1ed7 69bd
000002a0: 1df7 b03d bd6e 0f3f e6e3 0c3f 0581 c73e
000002b0: 3b99 6a3d 1b84 043f 0bac 8dbd a087 1f3f
000002c0: 6ebc 303f c14d 48bd b85b 993e 56ec d13e
000002d0: c989 7c3c b3fe f63e 2cbb bd3c c064 e23c
000002e0: a672 52bd 9134 89bb 6d53 16bd 899e b33d
000002f0: 5d63 26bc 5b63 42bd a970 99bc 260c 77bd
00000300: c987 513e 16db f0bc 1651 9a3e 75ea 5c3d
00000310: ca70 59be 7365 4dbd 22a6 44bc af32 babc
00000320: 7850 033c bca4 59bc 2507 d83e ea68 8dbc
00000330: 16ab 363d 47d8 66be 57bd 86bd e932 bc3e
00000340: 9050 0d3f e0f6 8abd d685 af3f cdba 093d
00000350: 2e5a 9ebd c026 6cbc 6dd8 1fbd 7e6f ed3e
00000360: 5b93 c63e 8596 48bd 8da8 10ba 3d93 ea3e
00000370: e2e1 68be e6fa df3e c844 39bf e642 39bd
00000380: 0e82 2b3d 5edd c73e dccc 16b7 1472 84bb
00000390: c353 063f 1e2a 353f aaf5 b33e 0f6f e63e
000003a0: 07d6 58bc bd58 4f3d 4226 e0bc 358e 22bc
000003b0: 6d63 ae3e ad01 043f 1838 6bbb f438 8cbc
000003c0: ff49 a53d b554 043f d414 143f 3afc 1f3e
000003d0: d628 7fbd 23d7 523c 73d0 9bbc a95d 113f
000003e0: bcaa 613e 96ea 8dbd af15 df3c 6957 433d
000003f0: d14b c63e eace fd3e 2073 81bd 5198 023f
-0.07494057 -0.0076007694 0.86608154 0.48131645 -0.0317285 0.015231636 -0.022327114 -0.46062332
0.04567523 -1.9428958 0.009954095 -0.07987397 0.5315829 -0.015418251 -0.015089936 -0.052512623
0.64943516 -0.26714218 -0.2490702 -0.024340779 0.7700697 0.37439707 0.071230516 0.26006573
-0.0039346367 0.26808274 0.033360668 0.31865808 0.030090168 -0.030181069 -0.05267053 -0.002530201
-0.033836413 0.96948636 0.25686303 0.28869882 0.3051791 0.41358107 0.9889631 -0.05937142
-0.07060507 -0.41737273 0.35623407 0.4911063 -0.023830695 -0.5028353 -0.024077991 0.04608503
0.03381763 0.048283875 0.5707494 0.2963292 -0.03798786 0.270418 -0.024066634 0.039451726
-0.054978784 -0.0036096303 0.03821758 -0.04867634 0.631568 0.03277166 -0.069425985 -0.08037333
0.27319044 -0.01391865 0.37775615 -0.068180874 0.70409584 0.07050419 0.012040247 0.012041058
-0.030244743 0.039539658 0.2744122 -0.0043555517 -0.030530322 0.7431722 -0.06302468 0.37115523
-0.20939288 0.06444202 -2.3756766 -0.006937306 -0.01004775 -0.04836888 0.03284192 0.31372762
0.3650027 -0.048027795 -0.056624204 0.36705267 0.8756011 -0.6442142 0.31146076 -0.05535558
-0.03533103 0.281779 -0.05694225 -0.04202535 -0.36858836 0.045264196 0.2276935 0.27077183
-0.087368965 0.018425725 0.01974354 -0.03379086 0.21169955 0.30812806 -0.014513023 0.028133772
-0.032573033 0.39197776 0.2632809 0.49299553 0.06310045 -0.061021425 -0.02711433 0.33643383
0.4534958 -0.016377635 0.0011385789 0.5907752 0.49849483 0.37863216 -0.050431367 0.34254012
0.53438246 -0.00026253282 -0.20385636 0.4556504 0.68547755 0.44910437 0.04210589 0.55839354
-0.05339262 -2.6944423 0.041443594 0.70468843 0.42532167 -0.06651281 -0.007973265 0.051399402
-0.08150079 0.5949162 0.6242655 0.015975192 -0.32267925 0.50057197 -0.073172994 0.23074035
-0.040187843 0.44652608 -0.05448778 0.516327 -0.03585646 -0.01313887 0.05304193 -0.016009577
0.024851017 -0.6961194 0.49894953 0.38717842 0.36511672 0.52041227 -1.5107598 -0.057089917
0.08640883 0.5602835 0.55035245 0.38965622 0.05727504 0.51764077 -0.0691758 0.6231632
0.6903752 -0.048902277 0.29952788 0.41000623 0.01541371 0.48241195 0.02316054 0.027635932
-0.05137887 -0.0041871746 -0.036700655 0.087704726 -0.010155526 -0.047458034 -0.018730478 -0.06031432
0.20461954 -0.029401343 0.3013999 0.053934533 -0.21234432 -0.050145578 -0.0120025 -0.022729246
0.008014791 -0.013283905 0.4219295 -0.017261941 0.044596754 -0.22543441 -0.065790825 0.3675759
0.55201054 -0.06785369 1.3712718 0.033625413 -0.07732044 -0.014413536 -0.03902476 0.46374124
0.38784298 -0.04897167 -0.000551828 0.4581546 -0.22742417 0.43746108 -0.72370577 -0.045229815
0.041872077 0.39036077 -8.988394e-06 -0.0040419195 0.5247156 0.7076739 0.35148364 0.45006606
-0.013234622 0.050621737 -0.027361993 -0.0099216 0.3406023 0.5156506 -0.0035891589 -0.017117001
0.08070754 0.5169175 0.5784428 0.1562356 -0.062294804 0.012868675 -0.019020295 0.5678354
0.22037786 -0.06929509 0.02723202 0.047690783 0.38729718 0.49571925 -0.063207865 0.51013666

network.4.bias f4 [2]
00000000: f24e 873d 5ff6 383e
0.066068545 0.18062733

network.0.weight f4 [128, 4]
00000000: 9edd c33e 0880 59be 546e a43e 3409 7e3e
00000010: 3b9c a63d e250 f13c 3feb 56be 547b b53d
00000020: 0dc2 acbe b9cf 003e 40c1 9c3f 46f7 083f
00000030: 2f4c 0ebf 69e8 573e b1ad e93f a957 eb3e
00000040: df5d 81be d2d3 bcbe db3c 37bf 1578 c9be
00000050: 6f3a e3be 38b9 c53e 5c9c 95be 27a8 933d
00000060: 423f a23d 95d8 2abe 84c8 073f ce8d 0ebe
00000070: 3316 c53d fe49 d13e 9f3c 923e 2085 283e
00000080: 93cb 473e 86a6 17be 9f15 debf 32bb bdbe
00000090: c87c 05be 4017 823c c4b1 11be f46d 0ebe
000000a0: 809f 673c c06b 12bc d40f 58be 206a e9bc
000000b0: bf94 ddbc 4642 bb3c 426d 0f40 3827 533e
000000c0: 0945 5dbf dc6c 9c3e edff abbe aa56 493e
000000d0: 6dbc 893e ca71 303e ceda 2a3e 9ece b53d
000000e0: 7fdb ebbe 298a 90be db64 a63f 5bcc 98bd
000000f0: 7ca7 9f3e 2a9d b6be 3315 e23d 17ac 3bbe
00000100: 8dc8 df3c 1072 ef3c 128f cc3f 11e3 873e
00000110: e056 e13c 10ec 2fbd 0ace fc3e a064 7bbd
00000120: 229b 6f3e 2563 673e 59df 7dbe 093d adbd
00000130: 88e7 183e d322 2b3e bdf6 dbbe bf00 5e3d
00000140: d033 083f 907b 7c3e abc0 babe e6a6 183d
00000150: fefe 17bf 3555 40be d752 093f f9ba a3be
00000160: f59b eebe 0fd2 b5be 32fb 923d cd0c 9cbd
00000170: ace4 bb3d 6cf2 313d dd15 3c3f 6369 d3be
00000180: 1b46 1a3d 7cc9 213e 839b 52bf fb4d af3e
00000190: a562 88bd 1208 713e 474b 9b3e 746e 1fbd
000001a0: 48b6 9a3e f7fd 26be a72e d83c 2e5e 7dbe
000001b0: 8a4d dd3e 5287 d6bd 8247 8a3c e721 fb3c
000001c0: 1dec e5be 453a af3e 3c7f d6be c69b 393e
000001d0: f509 2d3f 5ff1 04be 671b b13d 3629 9fbe
000001e0: ed65 d33e 107a 0a3e a6aa 3ebf 4960 883e
000001f0: 22b4 ebbc 352a d23e 2a7e af3f f859 e73e
00000200: 6be6 27bf 31e4 94be 1d42 33bf 7734 bd3e
00000210: 3fd9 dd3e b82a 99be c532 27bd 8141 abbe
00000220: 748a 9ebe b36a 96be e3b9 a2be d4ab 24be
00000230: 53e9 8f3c 34eb 62bd 7a31 0840 6132 433e
00000240: bac4 6e3e b869 1ebe 7077 7cbf 72aa b1be
00000250: 8297 453e 651c 2bbe ca22 febf de14 dcbe
00000260: a46f 1dbf 7dd7 b9bd 2445 4fbd cbbe 653d
00000270: 0fb0 99be 8989 53be 5e11 7d3f 05fd d2be
00000280: 0761 cb3c 33a7 f83e b449 b0be 4ec7 f23e
00000290: d035 37bd 728f 843b 108d f2be 8b99 4e3e
000002a0: af70 7c3e 2b04 48bd 85dd 943e e9b6 4c3e
000002b0: 8317 2f3d 97a5 23be 1ded 50bf 279f 8e3e
000002c0: 8db9 543e f255 5fbe 9216 3bbe 4ee2 c6bc
000002d0: bf4f 9ebe 5200 3a3e 2a42 9c3f 8b11 c53e
000002e0: 1ef6 283e ee1b 8cbe a9b1 04bf 1b96 c53e
000002f0: 4cbf 8b3e f32e cebe 3923 4b3e 6b95 a4be
00000300: abe1 68be 4a15 a7be 60ed d53e a659 833e
00000310: 86a3 d03d 8f1a bbbd 406c adbe 632e d0be
00000320: 7655 adbe df4b 9c3e 2c7a ea3d f5dc a73d
00000330: 68c8 42be 06b6 18bc 91a6 d6be f7ea 703c
00000340: 9dfb 6dbe a7dc adbc 64b2 e0bd 4e5c c8be
00000350: d2d7 1ebc 07a6 46bb 0f7b c53f 573a 073e
00000360: ab2a 45bf 4ed9 7f3d 9cc5 9bbe 4c21 4f3e
00000370: 8c05 97be 237a 9a3e 96d7 d93d 7cbe d63e
00000380: b1e2 60bf b213 683e c54e dbbe 162b 933e
00000390: 55a4 2c3d 211f 5abe fc0d 9ebe 70b7 34be
000003a0: 217f 94be 8fce f6bc 6e36 153f 378e f4bd
000003b0: 381c 713d 8bc9 273e 6467 4fbf 57ae 3bbe
000003c0: 0884 743e e8b1 c93e eaf7 64be 3099 6d3e
000003d0: be37 21bf 7e87 a9be d69d 763e 9bf2 0abe
000003e0: 63aa 133e 3d7e 07be b017 f0bf 5457 b7be
000003f0: 27d5 58bf 8b04 97bd 9738 f73e c6ab 34be
0.38255018 -0.21240246 0.32115424 0.24808198 0.08135267 0.029457513 -0.20988177 0.088614136
-0.337418 0.1257924 1.2246475 0.5350231 -0.55584997 0.21084751 1.8256131 0.45965317
-0.2526693 -0.36880356 -0.71577233 -0.39349428 -0.4438052 0.38617873 -0.29220855 0.07209807
0.07922222 -0.16684182 0.5304034 -0.13921282 0.09623375 0.40876764 0.28561875 0.16457033
0.19511251 -0.14809617 -1.7350348 -0.3705688 -0.13035882 0.015880227 -0.14227968 -0.13909131
0.014137149 -0.008936822 -0.21099788 -0.028492987 -0.027048467 0.02285875 2.2410436 0.2062043
-0.86433464 0.30551803 -0.33593693 0.19661966 0.2690157 0.17230907 0.1668503 0.088773
-0.460659 -0.28230408 1.2999529 -0.07460853 0.31182468 -0.35666782 0.110392 -0.18327366
0.02731731 0.029229194 1.5981162 0.26540425 0.027507246 -0.042949736 0.49375945 -0.06137526
0.23399022 0.22596414 -0.24792232 -0.08458907 0.14932072 0.16712503 -0.42961684 0.05419993
0.5320406 0.2465651 -0.3647512 0.03726854 -0.5937346 -0.18782504 0.5364203 -0.31978586
-0.4660336 -0.35511824 0.07176818 -0.07619629 0.09174475 0.043444082 0.7347086 -0.4129134
0.037664514 0.15799516 -0.8226854 0.34239182 -0.0665944 0.23538235 0.3033087 -0.038923696
0.30217195 -0.16307817 0.026389433 -0.24742958 0.4322322 -0.10475029 0.0168798 0.030655814
-0.44906703 0.34224144 -0.41893947 0.18125829 0.6759332 -0.12982701 0.08647805 -0.3108613
0.412887 0.13523126 -0.7447914 0.2663596 -0.028772417 0.41047826 1.3710377 0.45185828
-0.65585965 -0.29080346 -0.70022756 0.3695409 0.43329808 -0.29915404 -0.040819902 -0.33448413
-0.30965006 -0.2937828 -0.31782445 -0.16081172 0.017567312 -0.05540009 2.1280198 0.19062187
0.23317233 -0.15470016 -0.9861975 -0.34700352 0.19296077 -0.1671005 -1.9854367 -0.4298467
-0.61498475 -0.09074304 -0.050603047 0.056090157 -0.30017135 -0.20657934 0.98854625 -0.41208664
0.02482654 0.48565063 -0.3443123 0.47417682 -0.044729054 0.0040454203 -0.47373247 0.2017576
0.2465236 -0.0488321 0.29075256 0.1999165 0.042747032 -0.15981136 -0.81611806 0.278558
0.20773907 -0.2181013 -0.18270329 -0.024277832 -0.30920216 0.18164185 1.2207692 0.38489947
0.16500136 -0.2736506 -0.5183359 0.38591084 0.27294385 -0.40270194 0.19837655 -0.32145247
-0.22742335 -0.3263343 0.41782665 0.25654334 0.101874396 -0.09135925 -0.3387165 -0.4066039
-0.33854264 0.30526635 0.11449084 0.08196441 -0.19021761 -0.0093207415 -0.41923955 0.0147044575
-0.23240514 -0.02122338 -0.10971525 -0.39132923 -0.00969501 -0.0030311362 1.542818 0.13205849
-0.7701823 0.062463097 -0.304242 0.20227545 -0.2949642 0.30171308 0.10636823 0.41942203
-0.87845904 0.22663763 -0.42833534 0.2874381 0.042148907 -0.21300937 -0.30870044 -0.17648101
-0.29003242 -0.030127792 0.5828618 -0.11941188 0.058864802 0.16385476 -0.81017137 -0.18328224
0.23878491 0.39393544 -0.22360197 0.23202968 -0.6297568 -0.33111185 0.24083647 -0.13569109
0.14420466 -0.1323175 -1.8757229 -0.35808814 -0.84700245 -0.073739134 0.48285362 -0.17643651

network.0.bias f4 [128]
00000000: 4a35 e8bd 8aba b73e 99a0 0ebf 3f4e 03bf
00000010: ffb1 12bf 82a5 1f3f 5d36 a43e 35d9 143f
00000020: efc6 d6be 0a02 d5be 7cc6 84be fac6 c6be
00000030: ee28 4f3e 31a4 56bf da94 8fbd 466e df3e
00000040: b7ef a1be a03b ecbe bf87 843e 7a4f 893e
00000050: f40e 2cbe c752 b13e d774 473e 17a5 c3bd
00000060: 3301 8e3d 9fee a43e 2164 943e 7244 3abf
00000070: aadf b9be b2e3 06be 4b70 0c3e 6d65 37be
00000080: bf8b 22be 82e7 603e 24dc 333e c7b4 b3be
00000090: 7690 c3be a559 d0be 97fb 5a3e 192d bdbd
000000a0: 93cd b73e 374d eabe 732b 94be e03f e63c
000000b0: dbe7 cebe c8eb e9be d479 123e 3cc6 593e
000000c0: 9b13 42be 18fc d3be 5196 193d 2a07 f5be
000000d0: 4935 2fbe 8cf1 b1be 5172 453e 1130 023f
000000e0: 81cc fa3d 8535 f93e d8d7 74be fe8f 10bf
000000f0: da2b 20bf 4ccb 883e a327 cabe 4fe7 5d3b
00000100: 2b1b 793d 3a07 78be 1547 a8be c18a 893e
00000110: e433 02bf 229f 853e 39ee 903e 4d37 803e
00000120: c0fb 623e 2269 07bf 8029 9dbe 2232 8f3e
00000130: 02a4 623c 28af bdbe ead4 27be a01a a6be
00000140: 6c08 d7be 5ff4 20be 1438 9dbe 1688 aa3e
00000150: 9b16 a1be 557f 16bd 2b70 0abf 2520 4bbd
00000160: 44e1 edbe fbe0 ffbe 805a 18bf 16a3 f03e
00000170: d478 b9be f8dd 9dbe 7df9 d1be a86b 123e
00000180: 5495 febe 31ca e1be c301 dd3d b40d 43bc
00000190: b7e0 a63e 445e 103f 9adf 133f a932 25be
000001a0: 7089 15bf 7c20 4ebd 91e3 32bf 8c2a 793e
000001b0: c411 cd3e 34de c9be c06b 2c3e c14c cabe
000001c0: e51d d1be 7e07 f43e 543c 14bf 5320 0f3f
000001d0: 77b4 f3bd ebf3 fe3e 6615 a03e 33cc debe
000001e0: 093c a8bd 3497 39bf a2d9 a13d a482 7dbe
000001f0: ed40 c2bc 6e11 133f 405d 1abe 245b db3e
-0.11338289 0.35884506 -0.557138 -0.5129127 -0.5730285 0.6236192 0.32072726 0.5814393
-0.4194865 -0.41603118 -0.25932682 -0.38823682 0.20230457 -0.83844286 -0.07010813 0.4363882
-0.316282 -0.4613924 0.25884816 0.26818448 -0.16802579 0.34633467 0.19478165 -0.09552973
0.069338225 0.32213303 0.28982642 -0.7276069 -0.36303455 -0.13172796 0.13714711 -0.17909785
-0.15873621 0.21963313 0.17564446 -0.3509886 -0.38196152 -0.40693393 0.21385036 -0.09237117
0.35899028 -0.45762035 -0.289394 0.02810663 -0.40411267 -0.456877 0.14304286 0.21267027
-0.18952791 -0.4140327 0.03749687 -0.47857028 -0.1711017 -0.34754598 0.1928189 0.50854594
0.12246037 0.48673645 -0.23910463 -0.56469715 -0.6256691 0.26717603 -0.39483365 0.0033859794
0.060816925 -0.24221507 -0.3286673 0.26863673 -0.5086043 0.2609797 0.2830675 0.2504219
0.22166348 -0.52894795 -0.30695724 0.27967936 0.013833048 -0.37047696 -0.16389814 -0.32442188
-0.41998613 -0.1571822 -0.30706847 0.3330695 -0.3146256 -0.036742527 -0.54077405 -0.049591202
-0.46460927 -0.49976334 -0.5951309 0.46999425 -0.36224997 -0.3083341 -0.41010657 0.1429888
-0.49723303 -0.44099572 0.10791352 -0.011905123 0.3259332 0.5639384 0.57763064 -0.16132607
-0.5841284 -0.05032395 -0.6987849 0.24332637 0.40052617 -0.3942734 0.16837978 -0.39511684
-0.4084312 0.47661966 -0.57904553 0.559087 -0.11899655 0.4979547 0.31266326 -0.43515167
-0.08214576 -0.7249634 0.07902838 -0.24756867 -0.0237126 0.5744847 -0.15074635 0.42842972

network.2.weight f4 [128, 128]
00000000: 6f91 433d efee 7cba 4346 92be fba2 e1bd
00000010: 48e6 39be 54fb 9ebc e150 88bc 679c ad3c
00000020: e715 613e 4644 663d e0d1 603b 2d2f 1dbd
00000030: bf8e dcbe 0831 35be e35f 63be f961 a73d
00000040: c723 ef3d 2885 823c d211 463d 1679 733c
00000050: 0ede 473e 7a72 99bb ee7b 10bf 6af9 a23b
00000060: 662b 373e b29a b93c b1d7 443e 7efc 33be
00000070: f220 e9bd 9366 b03e d1ed ab3d 4f47 4ebe
00000080: c0e7 5cbd fe34 6b3e dee4 51be 4b78 d73c
00000090: cb29 133f 0e8b fc3d 440f dfbe 45ee b0bc
000000a0: dd87 b83c a7d9 26bd 8b93 eb3d 51e8 153e
000000b0: 954a b3bd fdec 64bd bc45 abbd fb45 c53c
000000c0: 63ab adbd 0805 d03e 4d70 53be b45f a5bd
000000d0: f60e 5f3e 2fd3 4cbe 08ed 3ebf e5fe 8abe
000000e0: 2eaf 34bf b0df 13bc df49 8abe ff1f abbe
000000f0: 70b3 a6bd a2b8 ebbd b544 253e b446 fcbe
00000100: 2df9 943e 5a7a 933e 6564 213e ee10 b1bf
00000110: 2f2e 373f 92d6 613d c1ec cdbd fb3e 7bbd
00000120: 81e8 35bc 6158 553d 8ae9 4c3f 55c6 933d
00000130: 0286 a9be e492 a13c f773 f23e 2b84 80bd
00000140: 68fb 21be 8e42 8a3c 4aab 47be dca5 a03d
00000150: dbb5 dd3d 1fbb 033e 6aeb 01be eee2 323d
00000160: 966a ad3c dd51 23bd 0f24 1a3e 97b1 ebbe
00000170: e3e6 f3be 0063 8dbe a72c 89be 37a9 c43e
00000180: 80a7 9a3c c98b 57bd 1d64 50be a086 b93e
00000190: 9589 48bc 94fd 133d 733c 81bd 6279 983d
000001a0: ed73 573d 8e92 eabe 76fd e6bd cb0c b53d
000001b0: 304b 4cbc 67a8 f93e c402 debe 968f fd3d
000001c0: 3259 afbd 79d3 93bc 3567 86bd e091 8ebe
000001d0: ba72 683d 4d34 1cbe d2d5 103d eff7 f4be
000001e0: 15c8 403d 2d16 fcbe 5c4a 09be 7c97 483f
000001f0: d33f 22be 2f1f 973b d886 bbbe 5f50 bebd
00000200: d8a1 6fbc 060c b1bd f9a2 8c3d 54bf 833c
00000210: eafa 333d 2b52 febc 2766 383c 2186 e0bd
00000220: 78fa 273c cac6 443d 748c c23c 34a0 87bd
00000230: 0e91 4c3d 2299 aabd e8bd 8abd e049 99bd
00000240: 86e6 353d 4214 603d 55cd 273d 3fd5 203d
00000250: f876 83bd 3fc3 3ebd d1f1 aebd 0930 c7bd
00000260: 7d12 45bd fb4d 023c d74f bdbd 4028 9b3b
00000270: b2ec 283d 54e3 f6bc 1282 1c3d 5e9b 5c3d
00000280: 158a 09bd 575c 393d 6e98 7f3b d170 0dbd
00000290: 4c1f 99bd 93d2 ba3a a7b0 07bd 592a 0a3d
000002a0: 9813 2d3d b232 36bd ef0f 0dbd 7012 fd3b
000002b0: 4912 70bd 8ff3 86bd 503f 7dbc 75e1 8d3d
000002c0: fd67 1abd 16cf 93bd 801d bfbc 36ec 553d
000002d0: 322f 253d 4c98 8dbc 3495 04bd 4340 17bc
000002e0: fee4 a5bd 1ffd 91bd 6eec 77bd 1282 06bd
000002f0: e036 66bc 4f58 56bc d050 c7bb c8b3 643c
00000300: f7f0 743c 99ef 883d 855e a5bd d743 1d3d
00000310: d6ba 5f3d 250e b73c cc82 5fbd 75c5 a1bd
00000320: 4c08 bcbc 3882 373c ef51 b1bd 004b bdbc
00000330: 403f 4d3c a0b5 a8bc 4197 a3bd 15cc 4dbd
00000340: 29d3 853d b09e 24bd f60e 773d 46bb 1f3d
00000350: 53b8 87bd 4f79 29bd b088 e7bb 8c3e b2bc
00000360: 18f4 d0bc 64ac c43c e034 1238 8199 9fbd
00000370: 3354 85bd b9a3 a4bd 4118 9bbd effa a1bd
00000380: 3634 10bd 8a85 a3bd 2f9b 193d d64a 0fbc
00000390: b7a9 693d e289 763d 6e28 d3bd e2fb aabd
000003a0: 0ecc 623d f643 06bd e857 923c b0ae 5c3d
000003b0: 8905 6f3d 1481 afbc 3fc5 8cbd fe4b 19bd
000003c0: 7489 103d 10d5 8fbd 36f9 ecbc 9bd9 bfbd
000003d0: 5bba a9bc 7823 6bbc 7325 afbd 81c3 dbbc
000003e0: 9a70 263d 4881 c3bc d6c0 da3c 8567 893d
000003f0: 5fbd bdbd 17b3 ed3c 2ad2 82bd 041c 3d3d
0.04774612 -0.0009648641 -0.2856923 -0.11017414 -0.18154252 -0.019406952 -0.016640129 0.021192743
0.21981011 0.056217454 0.0034304783 -0.03837507 -0.43077657 -0.17694485 -0.22204547 0.08172984
0.11676746 0.015932634 0.04835684 0.014860412 0.19518301 -0.004682836 -0.564391 0.00497358
0.17887649 0.022656772 0.19222905 -0.17576787 -0.11383237 0.34453258 0.08394969 -0.2014439
-0.05393195 0.22969434 -0.20497462 0.026302477 0.57485646 0.1233121 -0.43566334 -0.02159799
0.022525722 -0.040734913 0.11502751 0.14639403 -0.0875446 -0.055890072 -0.0836291 0.02408122
-0.08479955 0.4062884 -0.20648308 -0.080748945 0.21783051 -0.20002435 -0.7458043 -0.27147594
-0.70579803 -0.009025499 -0.27009484 -0.3342285 -0.08139694 -0.11509825 0.16139491 -0.49272692
0.29096356 0.28804284 0.15760954 -1.3833292 0.71554846 0.05513627 -0.10054923 -0.06133936
-0.0111027965 0.052086238 0.8004385 0.07215563 -0.33110052 0.019723363 0.473541 -0.06275209
-0.1581856 0.016877439 -0.19498935 0.07844135 0.10825702 0.1286435 -0.1268746 0.04367345
0.021168988 -0.039872993 0.15052818 -0.46033928 -0.4763709 -0.27614594 -0.2679188 0.3841035
0.018878698 -0.052623544 -0.2035069 0.36235523 -0.012239833 0.036130503 -0.06310358 0.07445027
0.05260079 -0.45814937 -0.112788126 0.08840331 -0.012469098 0.48761293 -0.43361485 0.123809025
-0.085619345 -0.018045174 -0.06562654 -0.2784567 0.056750037 -0.15254326 0.035360165 -0.47845408
0.047065813 -0.4923567 -0.13407272 0.78356147 -0.1584466 0.0046118717 -0.36626315 -0.09292673
-0.014625989 -0.086448714 0.06867022 0.016082443 0.043940462 -0.03104504 0.011254824 -0.10963083
0.0102525875 0.048041143 0.023748614 -0.06622353 0.049943022 -0.08329989 -0.06774503 -0.07484794
0.044409297 0.05470682 0.040967304 0.039265867 -0.06419176 -0.04657292 -0.085422166 -0.09725959
-0.048113335 0.007953162 -0.09243744 0.004735023 0.041241355 -0.030137695 0.038209982 0.053859107
-0.03357895 0.045254078 0.0039000767 -0.03453142 -0.074766725 0.001425343 -0.033127453 0.033731792
0.042255014 -0.04448194 -0.034439024 0.007723145 -0.058611188 -0.06589424 -0.015456989 0.06927768
-0.037696827 -0.07217233 -0.023329496 0.05222722 0.040328212 -0.017284535 -0.032368854 -0.00923163
-0.081003174 -0.07128357 -0.06052821 -0.03283889 -0.014051169 -0.013082578 -0.0060826316 0.013958879
0.014950029 0.066863246 -0.08074669 0.038394775 0.05462154 0.022345612 -0.054568097 -0.0789899
-0.022953175 0.01120048 -0.08658206 -0.023107052 0.012527287 -0.020594418 -0.07987834 -0.050243456
0.06534416 -0.0401904 0.060317002 0.038996957 -0.06626954 -0.041375455 -0.007065855 -0.02175834
-0.025507018 0.024007984 3.4858356e-05 -0.077929504 -0.065102 -0.0803904 -0.075729854 -0.0790919
-0.035206042 -0.07984455 0.03750151 -0.00874587 0.05704662 0.06019009 -0.10310446 -0.08348824
0.055370383 -0.032779656 0.017864183 0.053877532 0.058354888 -0.021423854 -0.06873559 -0.037425987
0.035287336 -0.0702306 -0.028927427 -0.09367677 -0.020718744 -0.014351718 -0.08552065 -0.026826622
0.04063473 -0.023865357 0.02670328 0.06709198 -0.09264635 0.02901606 -0.06387742 0.046169296

network.2.bias f4 [128]
00000000: a60d a4bc 66db 5bbd f712 293e 22ad 423e
00000010: 2ca1 013e c6ad 2e3d 8e70 88bd d3d3 ce3d
00000020: 7544 01bc ea0e f9bc 3ebb b2bd a8f0 ba3d
00000030: 1e63 1d3e ead6 463d cd31 623d 1ed9 42bd
00000040: 534b 353e 645c 3d3e 875d 373e 1b01 94bd
00000050: d8a5 363e 75d0 f53d 94c6 8dbb 6741 1a3e
00000060: 5136 7d3d d634 3c3e 0bf4 e7bb 00bf 963d
00000070: 24ea 29ba 59e8 7dbd 38c7 a3bd 20c6 b6bc
00000080: deb9 afbc 6457 613e c8f3 553e 7b08 b13d
00000090: 74fe 633e 29a0 363e 1351 883e 18a0 7cbd
000000a0: 9e57 a7bd 108c 143e 32a5 2d3e 4a06 343e
000000b0: 5f26 5c3d 8ebe 043e dc66 873d a1f8 4d3e
000000c0: 4625 4d3e e5e4 dfbd 99a9 413e 9d7c 393e
000000d0: cd3c 90bc 7461 d43d 36f9 b3bd c328 19bd
000000e0: 829b 2b3c 5973 96bd 8d1c 41bd 9756 30bd
000000f0: a06a 273e 10b5 323d 5ea7 c5bd a930 9fbd
00000100: b390 493e a975 a2bd 2aff 9f3d d157 1abc
00000110: 3243 be3d c368 6ebb 9504 32ba 3f29 88bd
00000120: ad26 5bbd ada3 bfbd 0ee5 553e 99b6 d23c
00000130: 5b5c b9bd 7246 8f3d d4d1 973c 45a0 623e
00000140: d44e 513e b995 43bb d22f 203d f69e a3bd
00000150: 0936 c7bd d476 38bd b1af f1bd c761 7e3d
00000160: 0c69 ca3d 88c6 c4bc 9b53 313c 3b94 2b3e
00000170: 0564 e73d 639f c63d 7085 dbbc b202 ea3b
00000180: 8a15 173d 3e20 b63d d4e6 093d e27e 4cbd
00000190: 7c32 223e 29c4 003e 636e 3c3e cb3c af3d
000001a0: 2f95 7abd b650 85bd c99e 98bd e88e 34bd
000001b0: ed88 043d 2623 543d 7272 f3bc f316 383c
000001c0: 9bc1 ccbb a450 363e c099 ab3d d3e2 4e3e
000001d0: b96a c83c 814c a33c 8ded 0a3d 122b 263e
000001e0: 1cdd cc3d fa5e 60bd 245d a6bc 4fc7 093e
000001f0: acee 543e fcb8 cc3d 4571 9d3c 656e 303e
-0.02002604 -0.05367603 0.16511141 0.19011357 0.12659138 0.042646192 -0.06662093 0.10098996
-0.007889857 -0.03040262 -0.0872712 0.09127933 0.15369841 0.0485448 0.055223275 -0.04757034
0.17704515 0.18492275 0.17906772 -0.07226773 0.17836702 0.12002651 -0.004326651 0.15064012
0.06181938 0.1837953 -0.0070786527 0.07360649 -0.0006481728 -0.061989162 -0.07996982 -0.02231127
-0.021450933 0.22005993 0.20893776 0.08644196 0.22265035 0.17834534 0.26624355 -0.061676115
-0.081710085 0.14506555 0.16957548 0.17580524 0.05374753 0.12963316 0.06611416 0.20114376
0.2003375 -0.1093233 0.18912353 0.18113942 -0.017607117 0.1037015 -0.087877676 -0.03739239
0.010474088 -0.073462196 -0.04714637 -0.04305133 0.16349268 0.043629706 -0.096510634 -0.07772953
0.19684105 -0.07932598 0.078123406 -0.009420351 0.0929016 -0.003637836 -0.0006790844 -0.06648492
-0.05350368 -0.093573906 0.20888159 0.025721835 -0.090508185 0.06995858 0.018532671 0.2213145
0.20440227 -0.002984388 0.039108105 -0.07989304 -0.09727103 -0.0450352 -0.118010886 0.062104966
0.09883317 -0.024020448 0.010823156 0.16755764 0.11298374 0.09698369 -0.026797026 0.0071414346
0.036885776 0.088928685 0.0336674 -0.049925692 0.15839571 0.12574829 0.18401484 0.08556517
-0.06117743 -0.06509535 -0.07452161 -0.0440816 0.032357145 0.051791333 -0.029717658 0.01123594
-0.0062486655 0.178042 0.08378935 0.20203714 0.024464952 0.01993394 0.033917952 0.16227368
0.10003111 -0.054778077 -0.020308085 0.13454936 0.20794171 0.099962205 0.01921905 0.17229612

network.4.weight f4 [2, 128]
00000000: 717a 99bd e00f f9bb 85b7 5d3f 1c6f f63e
00000010: bef5 01bd 1d8e 793c 5ae7 b6bc d2d6 ebbe
00000020: f315 3b3d cfb0 f8bf 8016 233c f794 a3bd
00000030: d115 083f d59c 7cbc c73b 77bc 7a17 57bd
00000040: 6241 263f dcc6 88be 420c 7fbe 5066 c7bc
00000050: 4a23 453f f9b0 bf3e 4ee1 913d 5627 853e
00000060: 20ee 80bb 2442 893e 32a5 083d 2727 a33e
00000070: a87f f63c 4a3e f7bc 0ebd 57bd bbd1 25bb
00000080: 0d98 0abd 4230 783f 8d83 833e 55d0 933e
00000090: 6f40 9c3e e6c0 d33e b02c 7d3f 722f 73bd
000000a0: 6499 90bd e1b1 d5be 5064 b63e 4972 fb3e
000000b0: 9738 c3bc d0b9 00bf 353f c5bc a8c3 3c3d
000000c0: 5b84 0a3d 50c5 453d a21c 123f 76b8 973e
000000d0: 2999 1bbd 3a74 8a3e 6427 c5bc 2298 213d
000000e0: 6f31 61bd 8c8f 6cbb 0a8a 1c3d d860 47bd
000000f0: 71ae 213f 933b 063d 362f 8ebd c69a a4bd
00000100: 9edf 8b3e 0d0b 64bc 4169 c13e 6aa2 8bbd
00000110: a03f 343f 8064 903d 7544 453c dc47 453c
00000120: d3c3 f7bc 56f4 213d c27f 8c3e 04b9 8ebb
00000130: ba1a fabc 8940 3e3f 1513 81bd 0f08 be3e
00000140: 166b 56be 2efa 833d 160b 18c0 5752 e3bb
00000150: 519f 24bc 721e 46bd 4085 063d e8a0 a03e
00000160: a2e1 ba3e cbb8 44bd c8ee 67bd 54ee bb3e
00000170: 6527 603f 39eb 24bf c977 9f3e 88bc 62bd
00000180: 45b7 10bd 5645 903e 473c 69bd c622 2cbd
00000190: 9db7 bcbe f366 393d 7c28 693e 9ba2 8a3e
000001a0: 80ee b2bd 8cf1 963c 34bd a13c 4968 0abd
000001b0: c4c7 583e f6c2 9d3e 08c8 6dbc cc78 e63c
000001c0: 4d6b 05bd 4fb1 c83e c1cc 863e e969 fc3e
000001d0: cf3a 813d 9af1 79bd df1e debc 0e41 ac3e
000001e0: 9a30 e83e 642a 86bc 5e3c 953a 0b3d 173f
000001f0: b73a ff3e 13dc c13e 1f91 4ebd 6b61 af3e
00000200: 4acd 083f 8fa4 89b9 b9bf 50be 024b e93e
00000210: 757b 2f3f 02f1 e53e 3a77 2c3d e1f2 0e3f
00000220: 38b2 5abd be71 2cc0 c2c0 293d 7666 343f
00000230: c3c3 d93e de37 88bd 4ca2 02bc 2e88 523d
00000240: e3e9 a6bd 6e4c 183f ddcf 1f3f 68de 823c
00000250: 3736 a5be 7c25 003f b9db 95bd 3347 6c3e
00000260: 029c 24bd 119f e43e 942e 5fbd 022e 043f
00000270: 39de 12bd 6a44 57bc 7f42 593d 8426 83bc
00000280: 5c94 cb3c e234 32bf 5076 ff3e 403c c63e
00000290: 94f0 ba3e bd39 053f 9460 c1bf 1ed7 69bd
000002a0: 1df7 b03d bd6e 0f3f e6e3 0c3f 0581 c73e
000002b0: 3b99 6a3d 1b84 043f 0bac 8dbd a087 1f3f
000002c0: 6ebc 303f c14d 48bd b85b 993e 56ec d13e
000002d0: c989 7c3c b3fe f63e 2cbb bd3c c064 e23c
000002e0: a672 52bd 9134 89bb 6d53 16bd 899e b33d
000002f0: 5d63 26bc 5b63 42bd a970 99bc 260c 77bd
00000300: c987 513e 16db f0bc 1651 9a3e 75ea 5c3d
00000310: ca70 59be 7365 4dbd 22a6 44bc af32 babc
00000320: 7850 033c bca4 59bc 2507 d83e ea68 8dbc
00000330: 16ab 363d 47d8 66be 57bd 86bd e932 bc3e
00000340: 9050 0d3f e0f6 8abd d685 af3f cdba 093d
00000350: 2e5a 9ebd c026 6cbc 6dd8 1fbd 7e6f ed3e
00000360: 5b93 c63e 8596 48bd 8da8 10ba 3d93 ea3e
00000370: e2e1 68be e6fa df3e c844 39bf e642 39bd
00000380: 0e82 2b3d 5edd c73e dccc 16b7 1472 84bb
00000390: c353 063f 1e2a 353f aaf5 b33e 0f6f e63e
000003a0: 07d6 58bc bd58 4f3d 4226 e0bc 358e 22bc
000003b0: 6d63 ae3e ad01 043f 1838 6bbb f438 8cbc
000003c0: ff49 a53d b554 043f d414 143f 3afc 1f3e
000003d0: d628 7fbd 23d7 523c 73d0 9bbc a95d 113f
000003e0: bcaa 613e 96ea 8dbd af15 df3c 6957 433d
000003f0: d14b c63e eace fd3e 2073 81bd 5198 023f
-0.07494057 -0.0076007694 0.86608154 0.48131645 -0.0317285 0.015231636 -0.022327114 -0.46062332
0.04567523 -1.9428958 0.009954095 -0.07987397 0.5315829 -0.015418251 -0.015089936 -0.052512623
0.64943516 -0.26714218 -0.2490702 -0.024340779 0.7700697 0.37439707 0.071230516 0.26006573
-0.0039346367 0.26808274 0.033360668 0.31865808 0.030090168 -0.030181069 -0.05267053 -0.002530201
-0.033836413 0.96948636 0.25686303 0.28869882 0.3051791 0.41358107 0.9889631 -0.05937142
-0.07060507 -0.41737273 0.35623407 0.4911063 -0.023830695 -0.5028353 -0.024077991 0.04608503
0.03381763 0.048283875 0.5707494 0.2963292 -0.03798786 0.270418 -0.024066634 0.039451726
-0.054978784 -0.0036096303 0.03821758 -0.04867634 0.631568 0.03277166 -0.069425985 -0.08037333
0.27319044 -0.01391865 0.37775615 -0.068180874 0.70409584 0.07050419 0.012040247 0.012041058
-0.030244743 0.039539658 0.2744122 -0.0043555517 -0.030530322 0.7431722 -0.06302468 0.37115523
-0.20939288 0.06444202 -2.3756766 -0.006937306 -0.01004775 -0.04836888 0.03284192 0.31372762
0.3650027 -0.048027795 -0.056624204 0.36705267 0.8756011 -0.6442142 0.31146076 -0.05535558
-0.03533103 0.281779 -0.05694225 -0.04202535 -0.36858836 0.045264196 0.2276935 0.27077183
-0.087368965 0.018425725 0.01974354 -0.03379086 0.21169955 0.30812806 -0.014513023 0.028133772
-0.032573033 0.39197776 0.2632809 0.49299553 0.06310045 -0.061021425 -0.02711433 0.33643383
0.4534958 -0.016377635 0.0011385789 0.5907752 0.49849483 0.37863216 -0.050431367 0.34254012
0.53438246 -0.00026253282 -0.20385636 0.4556504 0.68547755 0.44910437 0.04210589 0.55839354
-0.05339262 -2.6944423 0.041443594 0.70468843 0.42532167 -0.06651281 -0.007973265 0.051399402
-0.08150079 0.5949162 0.6242655 0.015975192 -0.32267925 0.50057197 -0.073172994 0.23074035
-0.040187843 0.44652608 -0.05448778 0.516327 -0.03585646 -0.01313887 0.05304193 -0.016009577
0.024851017 -0.6961194 0.49894953 0.38717842 0.36511672 0.52041227 -1.5107598 -0.057089917
0.08640883 0.5602835 0.55035245 0.38965622 0.05727504 0.51764077 -0.0691758 0.6231632
0.6903752 -0.048902277 0.29952788 0.41000623 0.01541371 0.48241195 0.02316054 0.027635932
-0.05137887 -0.0041871746 -0.036700655 0.087704726 -0.010155526 -0.047458034 -0.018730478 -0.06031432
0.20461954 -0.029401343 0.3013999 0.053934533 -0.21234432 -0.050145578 -0.0120025 -0.022729246
0.008014791 -0.013283905 0.4219295 -0.017261941 0.044596754 -0.22543441 -0.065790825 0.3675759
0.55201054 -0.06785369 1.3712718 0.033625413 -0.07732044 -0.014413536 -0.03902476 0.46374124
0.38784298 -0.04897167 -0.000551828 0.4581546 -0.22742417 0.43746108 -0.72370577 -0.045229815
0.041872077 0.39036077 -8.988394e-06 -0.0040419195 0.5247156 0.7076739 0.35148364 0.45006606
-0.013234622 0.050621737 -0.027361993 -0.0099216 0.3406023 0.5156506 -0.0035891589 -0.017117001
0.08070754 0.5169175 0.5784428 0.1562356 -0.062294804 0.012868675 -0.019020295 0.5678354
0.22037786 -0.06929509 0.02723202 0.047690783 0.38729718 0.49571925 -0.063207865 0.51013666

network.4.bias f4 [2]
00000000: f24e 873d 5ff6 383e
0.066068545 0.18062733
